{
  "format": "graph-model",
  "generatedBy": "2.15.0",
  "convertedBy": "TensorFlow.js Converter v4.22.0",
  "signature": {
    "inputs": {
      "input_1": {
        "name": "input_1:0",
        "dtype": "DT_FLOAT",
        "tensorShape": {
          "dim": [
            {
              "size": "-1"
            },
            {
              "size": "224"
            },
            {
              "size": "224"
            },
            {
              "size": "3"
            }
          ]
        }
      }
    },
    "outputs": {
      "minimum": {
        "name": "Identity:0",
        "dtype": "DT_FLOAT",
        "tensorShape": {
          "dim": [
            {
              "size": "-1"
            },
            {
              "size": "1"
            }
          ]
        }
      }
    }
  },
  "modelTopology": {
    "node": [
      {
        "name": "input_1",
        "op": "Placeholder",
        "attr": {
          "shape": {
            "shape": {
              "dim": [
                {
                  "size": "-1"
                },
                {
                  "size": "224"
                },
                {
                  "size": "224"
                },
                {
                  "size": "3"
                }
              ]
            }
          },
          "dtype": {
            "type": "DT_FLOAT"
          }
        }
      },
      {
        "name": "StatefulPartitionedCall/model/ff1fe8d48e3c45a1b58f9cae3ad95deb/StatefulPartitionedCall/StatefulPartitionedCall/sequential/StatefulPartitionedCall/efficientnetb0/StatefulPartitionedCall/stem_conv/StatefulPartitionedCall/Conv2D_weights",
        "op": "Const",
        "attr": {
          "value": {
            "tensor": {
              "dtype": "DT_FLOAT",
              "tensorShape": {
                "dim": [
                  {
                    "size": "3"
                  },
                  {
                    "size": "3"
                  },
                  {
                    "size": "3"
                  },
                  {
                    "size": "32"
                  }
                ]
              }
            }
          },
          "dtype": {
            "type": "DT_FLOAT"
          }
        }
      },
      {
        "name": "StatefulPartitionedCall/model/1e9cafc363934eb1b8c67ca3830c5901/StatefulPartitionedCall/StatefulPartitionedCall/sequential_3/StatefulPartitionedCall/efficientnetb0/StatefulPartitionedCall/block6d_expand_conv/StatefulPartitionedCall/Conv2D_weights",
        "op": "Const",
        "attr": {
          "value": {
            "tensor": {
              "dtype": "DT_FLOAT",
              "tensorShape": {
                "dim": [
                  {
                    "size": "1"
                  },
                  {
                    "size": "1"
                  },
                  {
                    "size": "192"
                  },
                  {
                    "size": "1152"
                  }
                ]
              }
            }
          },
          "dtype": {
            "type": "DT_FLOAT"
          }
        }
      },
      {
        "name": "StatefulPartitionedCall/model/ff1fe8d48e3c45a1b58f9cae3ad95deb/StatefulPartitionedCall/StatefulPartitionedCall/sequential/StatefulPartitionedCall/efficientnetb0/StatefulPartitionedCall/stem_conv/StatefulPartitionedCall/Conv2D_bn_offset",
        "op": "Const",
        "attr": {
          "value": {
            "tensor": {
              "dtype": "DT_FLOAT",
              "tensorShape": {
                "dim": [
                  {
                    "size": "32"
                  }
                ]
              }
            }
          },
          "dtype": {
            "type": "DT_FLOAT"
          }
        }
      },
      {
        "name": "StatefulPartitionedCall/model/1e9cafc363934eb1b8c67ca3830c5901/StatefulPartitionedCall/StatefulPartitionedCall/sequential_3/StatefulPartitionedCall/efficientnetb0/StatefulPartitionedCall/stem_conv/StatefulPartitionedCall/Conv2D_weights",
        "op": "Const",
        "attr": {
          "value": {
            "tensor": {
              "dtype": "DT_FLOAT",
              "tensorShape": {
                "dim": [
                  {
                    "size": "3"
                  },
                  {
                    "size": "3"
                  },
                  {
                    "size": "3"
                  },
                  {
                    "size": "32"
                  }
                ]
              }
            }
          },
          "dtype": {
            "type": "DT_FLOAT"
          }
        }
      },
      {
        "name": "StatefulPartitionedCall/model/1e9cafc363934eb1b8c67ca3830c5901/StatefulPartitionedCall/StatefulPartitionedCall/sequential_3/StatefulPartitionedCall/efficientnetb0/StatefulPartitionedCall/stem_conv/StatefulPartitionedCall/Conv2D_bn_offset",
        "op": "Const",
        "attr": {
          "value": {
            "tensor": {
              "dtype": "DT_FLOAT",
              "tensorShape": {
                "dim": [
                  {
                    "size": "32"
                  }
                ]
              }
            }
          },
          "dtype": {
            "type": "DT_FLOAT"
          }
        }
      },
      {
        "name": "StatefulPartitionedCall/model/ff1fe8d48e3c45a1b58f9cae3ad95deb/StatefulPartitionedCall/StatefulPartitionedCall/sequential/StatefulPartitionedCall/efficientnetb0/StatefulPartitionedCall/block1a_dwconv/StatefulPartitionedCall/depthwise_weights",
        "op": "Const",
        "attr": {
          "value": {
            "tensor": {
              "dtype": "DT_FLOAT",
              "tensorShape": {
                "dim": [
                  {
                    "size": "3"
                  },
                  {
                    "size": "3"
                  },
                  {
                    "size": "32"
                  },
                  {
                    "size": "1"
                  }
                ]
              }
            }
          },
          "dtype": {
            "type": "DT_FLOAT"
          }
        }
      },
      {
        "name": "StatefulPartitionedCall/model/ff1fe8d48e3c45a1b58f9cae3ad95deb/StatefulPartitionedCall/StatefulPartitionedCall/sequential/StatefulPartitionedCall/efficientnetb0/StatefulPartitionedCall/block1a_dwconv/StatefulPartitionedCall/depthwise_bn_offset",
        "op": "Const",
        "attr": {
          "value": {
            "tensor": {
              "dtype": "DT_FLOAT",
              "tensorShape": {
                "dim": [
                  {
                    "size": "32"
                  }
                ]
              }
            }
          },
          "dtype": {
            "type": "DT_FLOAT"
          }
        }
      },
      {
        "name": "StatefulPartitionedCall/model/1e9cafc363934eb1b8c67ca3830c5901/StatefulPartitionedCall/StatefulPartitionedCall/sequential_3/StatefulPartitionedCall/efficientnetb0/StatefulPartitionedCall/block6d_expand_conv/StatefulPartitionedCall/Conv2D_bn_offset",
        "op": "Const",
        "attr": {
          "value": {
            "tensor": {
              "dtype": "DT_FLOAT",
              "tensorShape": {
                "dim": [
                  {
                    "size": "1152"
                  }
                ]
              }
            }
          },
          "dtype": {
            "type": "DT_FLOAT"
          }
        }
      },
      {
        "name": "StatefulPartitionedCall/model/1e9cafc363934eb1b8c67ca3830c5901/StatefulPartitionedCall/StatefulPartitionedCall/sequential_3/StatefulPartitionedCall/efficientnetb0/StatefulPartitionedCall/block1a_dwconv/StatefulPartitionedCall/depthwise_weights",
        "op": "Const",
        "attr": {
          "value": {
            "tensor": {
              "dtype": "DT_FLOAT",
              "tensorShape": {
                "dim": [
                  {
                    "size": "3"
                  },
                  {
                    "size": "3"
                  },
                  {
                    "size": "32"
                  },
                  {
                    "size": "1"
                  }
                ]
              }
            }
          },
          "dtype": {
            "type": "DT_FLOAT"
          }
        }
      },
      {
        "name": "StatefulPartitionedCall/model/1e9cafc363934eb1b8c67ca3830c5901/StatefulPartitionedCall/StatefulPartitionedCall/sequential_3/StatefulPartitionedCall/efficientnetb0/StatefulPartitionedCall/block1a_dwconv/StatefulPartitionedCall/depthwise_bn_offset",
        "op": "Const",
        "attr": {
          "value": {
            "tensor": {
              "dtype": "DT_FLOAT",
              "tensorShape": {
                "dim": [
                  {
                    "size": "32"
                  }
                ]
              }
            }
          },
          "dtype": {
            "type": "DT_FLOAT"
          }
        }
      },
      {
        "name": "StatefulPartitionedCall/model/ff1fe8d48e3c45a1b58f9cae3ad95deb/StatefulPartitionedCall/StatefulPartitionedCall/sequential/StatefulPartitionedCall/efficientnetb0/StatefulPartitionedCall/block1a_project_conv/StatefulPartitionedCall/Conv2D_weights",
        "op": "Const",
        "attr": {
          "value": {
            "tensor": {
              "dtype": "DT_FLOAT",
              "tensorShape": {
                "dim": [
                  {
                    "size": "1"
                  },
                  {
                    "size": "1"
                  },
                  {
                    "size": "32"
                  },
                  {
                    "size": "16"
                  }
                ]
              }
            }
          },
          "dtype": {
            "type": "DT_FLOAT"
          }
        }
      },
      {
        "name": "StatefulPartitionedCall/model/ff1fe8d48e3c45a1b58f9cae3ad95deb/StatefulPartitionedCall/StatefulPartitionedCall/sequential/StatefulPartitionedCall/efficientnetb0/StatefulPartitionedCall/block6d_dwconv/StatefulPartitionedCall/depthwise_weights",
        "op": "Const",
        "attr": {
          "value": {
            "tensor": {
              "dtype": "DT_FLOAT",
              "tensorShape": {
                "dim": [
                  {
                    "size": "5"
                  },
                  {
                    "size": "5"
                  },
                  {
                    "size": "1152"
                  },
                  {
                    "size": "1"
                  }
                ]
              }
            }
          },
          "dtype": {
            "type": "DT_FLOAT"
          }
        }
      },
      {
        "name": "StatefulPartitionedCall/model/ff1fe8d48e3c45a1b58f9cae3ad95deb/StatefulPartitionedCall/StatefulPartitionedCall/sequential/StatefulPartitionedCall/efficientnetb0/StatefulPartitionedCall/block1a_project_conv/StatefulPartitionedCall/Conv2D_bn_offset",
        "op": "Const",
        "attr": {
          "value": {
            "tensor": {
              "dtype": "DT_FLOAT",
              "tensorShape": {
                "dim": [
                  {
                    "size": "16"
                  }
                ]
              }
            }
          },
          "dtype": {
            "type": "DT_FLOAT"
          }
        }
      },
      {
        "name": "StatefulPartitionedCall/model/1e9cafc363934eb1b8c67ca3830c5901/StatefulPartitionedCall/StatefulPartitionedCall/sequential_3/StatefulPartitionedCall/efficientnetb0/StatefulPartitionedCall/block1a_project_conv/StatefulPartitionedCall/Conv2D_weights",
        "op": "Const",
        "attr": {
          "value": {
            "tensor": {
              "dtype": "DT_FLOAT",
              "tensorShape": {
                "dim": [
                  {
                    "size": "1"
                  },
                  {
                    "size": "1"
                  },
                  {
                    "size": "32"
                  },
                  {
                    "size": "16"
                  }
                ]
              }
            }
          },
          "dtype": {
            "type": "DT_FLOAT"
          }
        }
      },
      {
        "name": "StatefulPartitionedCall/model/1e9cafc363934eb1b8c67ca3830c5901/StatefulPartitionedCall/StatefulPartitionedCall/sequential_3/StatefulPartitionedCall/efficientnetb0/StatefulPartitionedCall/block1a_project_conv/StatefulPartitionedCall/Conv2D_bn_offset",
        "op": "Const",
        "attr": {
          "value": {
            "tensor": {
              "dtype": "DT_FLOAT",
              "tensorShape": {
                "dim": [
                  {
                    "size": "16"
                  }
                ]
              }
            }
          },
          "dtype": {
            "type": "DT_FLOAT"
          }
        }
      },
      {
        "name": "StatefulPartitionedCall/model/ff1fe8d48e3c45a1b58f9cae3ad95deb/StatefulPartitionedCall/StatefulPartitionedCall/sequential/StatefulPartitionedCall/efficientnetb0/StatefulPartitionedCall/block2a_expand_conv/StatefulPartitionedCall/Conv2D_weights",
        "op": "Const",
        "attr": {
          "value": {
            "tensor": {
              "dtype": "DT_FLOAT",
              "tensorShape": {
                "dim": [
                  {
                    "size": "1"
                  },
                  {
                    "size": "1"
                  },
                  {
                    "size": "16"
                  },
                  {
                    "size": "96"
                  }
                ]
              }
            }
          },
          "dtype": {
            "type": "DT_FLOAT"
          }
        }
      },
      {
        "name": "StatefulPartitionedCall/model/ff1fe8d48e3c45a1b58f9cae3ad95deb/StatefulPartitionedCall/StatefulPartitionedCall/sequential/StatefulPartitionedCall/efficientnetb0/StatefulPartitionedCall/block6d_dwconv/StatefulPartitionedCall/depthwise_bn_offset",
        "op": "Const",
        "attr": {
          "value": {
            "tensor": {
              "dtype": "DT_FLOAT",
              "tensorShape": {
                "dim": [
                  {
                    "size": "1152"
                  }
                ]
              }
            }
          },
          "dtype": {
            "type": "DT_FLOAT"
          }
        }
      },
      {
        "name": "StatefulPartitionedCall/model/ff1fe8d48e3c45a1b58f9cae3ad95deb/StatefulPartitionedCall/StatefulPartitionedCall/sequential/StatefulPartitionedCall/efficientnetb0/StatefulPartitionedCall/block2a_expand_conv/StatefulPartitionedCall/Conv2D_bn_offset",
        "op": "Const",
        "attr": {
          "value": {
            "tensor": {
              "dtype": "DT_FLOAT",
              "tensorShape": {
                "dim": [
                  {
                    "size": "96"
                  }
                ]
              }
            }
          },
          "dtype": {
            "type": "DT_FLOAT"
          }
        }
      },
      {
        "name": "StatefulPartitionedCall/model/1e9cafc363934eb1b8c67ca3830c5901/StatefulPartitionedCall/StatefulPartitionedCall/sequential_3/StatefulPartitionedCall/efficientnetb0/StatefulPartitionedCall/block2a_expand_conv/StatefulPartitionedCall/Conv2D_weights",
        "op": "Const",
        "attr": {
          "value": {
            "tensor": {
              "dtype": "DT_FLOAT",
              "tensorShape": {
                "dim": [
                  {
                    "size": "1"
                  },
                  {
                    "size": "1"
                  },
                  {
                    "size": "16"
                  },
                  {
                    "size": "96"
                  }
                ]
              }
            }
          },
          "dtype": {
            "type": "DT_FLOAT"
          }
        }
      },
      {
        "name": "StatefulPartitionedCall/model/1e9cafc363934eb1b8c67ca3830c5901/StatefulPartitionedCall/StatefulPartitionedCall/sequential_3/StatefulPartitionedCall/efficientnetb0/StatefulPartitionedCall/block2a_expand_conv/StatefulPartitionedCall/Conv2D_bn_offset",
        "op": "Const",
        "attr": {
          "value": {
            "tensor": {
              "dtype": "DT_FLOAT",
              "tensorShape": {
                "dim": [
                  {
                    "size": "96"
                  }
                ]
              }
            }
          },
          "dtype": {
            "type": "DT_FLOAT"
          }
        }
      },
      {
        "name": "StatefulPartitionedCall/model/ff1fe8d48e3c45a1b58f9cae3ad95deb/StatefulPartitionedCall/StatefulPartitionedCall/sequential/StatefulPartitionedCall/efficientnetb0/StatefulPartitionedCall/block2a_dwconv/StatefulPartitionedCall/depthwise_weights",
        "op": "Const",
        "attr": {
          "value": {
            "tensor": {
              "dtype": "DT_FLOAT",
              "tensorShape": {
                "dim": [
                  {
                    "size": "3"
                  },
                  {
                    "size": "3"
                  },
                  {
                    "size": "96"
                  },
                  {
                    "size": "1"
                  }
                ]
              }
            }
          },
          "dtype": {
            "type": "DT_FLOAT"
          }
        }
      },
      {
        "name": "StatefulPartitionedCall/model/ff1fe8d48e3c45a1b58f9cae3ad95deb/StatefulPartitionedCall/StatefulPartitionedCall/sequential/StatefulPartitionedCall/efficientnetb0/StatefulPartitionedCall/block2a_dwconv/StatefulPartitionedCall/depthwise_bn_offset",
        "op": "Const",
        "attr": {
          "value": {
            "tensor": {
              "dtype": "DT_FLOAT",
              "tensorShape": {
                "dim": [
                  {
                    "size": "96"
                  }
                ]
              }
            }
          },
          "dtype": {
            "type": "DT_FLOAT"
          }
        }
      },
      {
        "name": "StatefulPartitionedCall/model/1e9cafc363934eb1b8c67ca3830c5901/StatefulPartitionedCall/StatefulPartitionedCall/sequential_3/StatefulPartitionedCall/efficientnetb0/StatefulPartitionedCall/block2a_dwconv/StatefulPartitionedCall/depthwise_weights",
        "op": "Const",
        "attr": {
          "value": {
            "tensor": {
              "dtype": "DT_FLOAT",
              "tensorShape": {
                "dim": [
                  {
                    "size": "3"
                  },
                  {
                    "size": "3"
                  },
                  {
                    "size": "96"
                  },
                  {
                    "size": "1"
                  }
                ]
              }
            }
          },
          "dtype": {
            "type": "DT_FLOAT"
          }
        }
      },
      {
        "name": "StatefulPartitionedCall/model/1e9cafc363934eb1b8c67ca3830c5901/StatefulPartitionedCall/StatefulPartitionedCall/sequential_3/StatefulPartitionedCall/efficientnetb0/StatefulPartitionedCall/block2a_dwconv/StatefulPartitionedCall/depthwise_bn_offset",
        "op": "Const",
        "attr": {
          "value": {
            "tensor": {
              "dtype": "DT_FLOAT",
              "tensorShape": {
                "dim": [
                  {
                    "size": "96"
                  }
                ]
              }
            }
          },
          "dtype": {
            "type": "DT_FLOAT"
          }
        }
      },
      {
        "name": "StatefulPartitionedCall/model/ff1fe8d48e3c45a1b58f9cae3ad95deb/StatefulPartitionedCall/StatefulPartitionedCall/sequential/StatefulPartitionedCall/efficientnetb0/StatefulPartitionedCall/block2a_project_conv/StatefulPartitionedCall/Conv2D_weights",
        "op": "Const",
        "attr": {
          "value": {
            "tensor": {
              "dtype": "DT_FLOAT",
              "tensorShape": {
                "dim": [
                  {
                    "size": "1"
                  },
                  {
                    "size": "1"
                  },
                  {
                    "size": "96"
                  },
                  {
                    "size": "24"
                  }
                ]
              }
            }
          },
          "dtype": {
            "type": "DT_FLOAT"
          }
        }
      },
      {
        "name": "StatefulPartitionedCall/model/ff1fe8d48e3c45a1b58f9cae3ad95deb/StatefulPartitionedCall/StatefulPartitionedCall/sequential/StatefulPartitionedCall/efficientnetb0/StatefulPartitionedCall/block2a_project_conv/StatefulPartitionedCall/Conv2D_bn_offset",
        "op": "Const",
        "attr": {
          "value": {
            "tensor": {
              "dtype": "DT_FLOAT",
              "tensorShape": {
                "dim": [
                  {
                    "size": "24"
                  }
                ]
              }
            }
          },
          "dtype": {
            "type": "DT_FLOAT"
          }
        }
      },
      {
        "name": "StatefulPartitionedCall/model/1e9cafc363934eb1b8c67ca3830c5901/StatefulPartitionedCall/StatefulPartitionedCall/sequential_3/StatefulPartitionedCall/efficientnetb0/StatefulPartitionedCall/block2a_project_conv/StatefulPartitionedCall/Conv2D_weights",
        "op": "Const",
        "attr": {
          "value": {
            "tensor": {
              "dtype": "DT_FLOAT",
              "tensorShape": {
                "dim": [
                  {
                    "size": "1"
                  },
                  {
                    "size": "1"
                  },
                  {
                    "size": "96"
                  },
                  {
                    "size": "24"
                  }
                ]
              }
            }
          },
          "dtype": {
            "type": "DT_FLOAT"
          }
        }
      },
      {
        "name": "StatefulPartitionedCall/model/1e9cafc363934eb1b8c67ca3830c5901/StatefulPartitionedCall/StatefulPartitionedCall/sequential_3/StatefulPartitionedCall/efficientnetb0/StatefulPartitionedCall/block2a_project_conv/StatefulPartitionedCall/Conv2D_bn_offset",
        "op": "Const",
        "attr": {
          "value": {
            "tensor": {
              "dtype": "DT_FLOAT",
              "tensorShape": {
                "dim": [
                  {
                    "size": "24"
                  }
                ]
              }
            }
          },
          "dtype": {
            "type": "DT_FLOAT"
          }
        }
      },
      {
        "name": "StatefulPartitionedCall/model/ff1fe8d48e3c45a1b58f9cae3ad95deb/StatefulPartitionedCall/StatefulPartitionedCall/sequential/StatefulPartitionedCall/efficientnetb0/StatefulPartitionedCall/block2b_expand_conv/StatefulPartitionedCall/Conv2D_weights",
        "op": "Const",
        "attr": {
          "value": {
            "tensor": {
              "dtype": "DT_FLOAT",
              "tensorShape": {
                "dim": [
                  {
                    "size": "1"
                  },
                  {
                    "size": "1"
                  },
                  {
                    "size": "24"
                  },
                  {
                    "size": "144"
                  }
                ]
              }
            }
          },
          "dtype": {
            "type": "DT_FLOAT"
          }
        }
      },
      {
        "name": "StatefulPartitionedCall/model/ff1fe8d48e3c45a1b58f9cae3ad95deb/StatefulPartitionedCall/StatefulPartitionedCall/sequential/StatefulPartitionedCall/efficientnetb0/StatefulPartitionedCall/block2b_expand_conv/StatefulPartitionedCall/Conv2D_bn_offset",
        "op": "Const",
        "attr": {
          "value": {
            "tensor": {
              "dtype": "DT_FLOAT",
              "tensorShape": {
                "dim": [
                  {
                    "size": "144"
                  }
                ]
              }
            }
          },
          "dtype": {
            "type": "DT_FLOAT"
          }
        }
      },
      {
        "name": "StatefulPartitionedCall/model/1e9cafc363934eb1b8c67ca3830c5901/StatefulPartitionedCall/StatefulPartitionedCall/sequential_3/StatefulPartitionedCall/efficientnetb0/StatefulPartitionedCall/block2b_expand_conv/StatefulPartitionedCall/Conv2D_weights",
        "op": "Const",
        "attr": {
          "value": {
            "tensor": {
              "dtype": "DT_FLOAT",
              "tensorShape": {
                "dim": [
                  {
                    "size": "1"
                  },
                  {
                    "size": "1"
                  },
                  {
                    "size": "24"
                  },
                  {
                    "size": "144"
                  }
                ]
              }
            }
          },
          "dtype": {
            "type": "DT_FLOAT"
          }
        }
      },
      {
        "name": "StatefulPartitionedCall/model/ff1fe8d48e3c45a1b58f9cae3ad95deb/StatefulPartitionedCall/StatefulPartitionedCall/sequential/StatefulPartitionedCall/efficientnetb0/StatefulPartitionedCall/top_conv/StatefulPartitionedCall/Conv2D_bn_offset",
        "op": "Const",
        "attr": {
          "value": {
            "tensor": {
              "dtype": "DT_FLOAT",
              "tensorShape": {
                "dim": [
                  {
                    "size": "1280"
                  }
                ]
              }
            }
          },
          "dtype": {
            "type": "DT_FLOAT"
          }
        }
      },
      {
        "name": "StatefulPartitionedCall/model/1e9cafc363934eb1b8c67ca3830c5901/StatefulPartitionedCall/StatefulPartitionedCall/sequential_3/StatefulPartitionedCall/efficientnetb0/StatefulPartitionedCall/block2b_expand_conv/StatefulPartitionedCall/Conv2D_bn_offset",
        "op": "Const",
        "attr": {
          "value": {
            "tensor": {
              "dtype": "DT_FLOAT",
              "tensorShape": {
                "dim": [
                  {
                    "size": "144"
                  }
                ]
              }
            }
          },
          "dtype": {
            "type": "DT_FLOAT"
          }
        }
      },
      {
        "name": "StatefulPartitionedCall/model/ff1fe8d48e3c45a1b58f9cae3ad95deb/StatefulPartitionedCall/StatefulPartitionedCall/sequential/StatefulPartitionedCall/efficientnetb0/StatefulPartitionedCall/block2b_dwconv/StatefulPartitionedCall/depthwise_weights",
        "op": "Const",
        "attr": {
          "value": {
            "tensor": {
              "dtype": "DT_FLOAT",
              "tensorShape": {
                "dim": [
                  {
                    "size": "3"
                  },
                  {
                    "size": "3"
                  },
                  {
                    "size": "144"
                  },
                  {
                    "size": "1"
                  }
                ]
              }
            }
          },
          "dtype": {
            "type": "DT_FLOAT"
          }
        }
      },
      {
        "name": "StatefulPartitionedCall/model/ff1fe8d48e3c45a1b58f9cae3ad95deb/StatefulPartitionedCall/StatefulPartitionedCall/sequential/StatefulPartitionedCall/efficientnetb0/StatefulPartitionedCall/block2b_dwconv/StatefulPartitionedCall/depthwise_bn_offset",
        "op": "Const",
        "attr": {
          "value": {
            "tensor": {
              "dtype": "DT_FLOAT",
              "tensorShape": {
                "dim": [
                  {
                    "size": "144"
                  }
                ]
              }
            }
          },
          "dtype": {
            "type": "DT_FLOAT"
          }
        }
      },
      {
        "name": "StatefulPartitionedCall/model/1e9cafc363934eb1b8c67ca3830c5901/StatefulPartitionedCall/StatefulPartitionedCall/sequential_3/StatefulPartitionedCall/efficientnetb0/StatefulPartitionedCall/block2b_dwconv/StatefulPartitionedCall/depthwise_weights",
        "op": "Const",
        "attr": {
          "value": {
            "tensor": {
              "dtype": "DT_FLOAT",
              "tensorShape": {
                "dim": [
                  {
                    "size": "3"
                  },
                  {
                    "size": "3"
                  },
                  {
                    "size": "144"
                  },
                  {
                    "size": "1"
                  }
                ]
              }
            }
          },
          "dtype": {
            "type": "DT_FLOAT"
          }
        }
      },
      {
        "name": "StatefulPartitionedCall/model/1e9cafc363934eb1b8c67ca3830c5901/StatefulPartitionedCall/StatefulPartitionedCall/sequential_3/StatefulPartitionedCall/efficientnetb0/StatefulPartitionedCall/block2b_dwconv/StatefulPartitionedCall/depthwise_bn_offset",
        "op": "Const",
        "attr": {
          "value": {
            "tensor": {
              "dtype": "DT_FLOAT",
              "tensorShape": {
                "dim": [
                  {
                    "size": "144"
                  }
                ]
              }
            }
          },
          "dtype": {
            "type": "DT_FLOAT"
          }
        }
      },
      {
        "name": "StatefulPartitionedCall/model/ff1fe8d48e3c45a1b58f9cae3ad95deb/StatefulPartitionedCall/StatefulPartitionedCall/sequential/StatefulPartitionedCall/efficientnetb0/StatefulPartitionedCall/block2b_project_conv/StatefulPartitionedCall/Conv2D_weights",
        "op": "Const",
        "attr": {
          "value": {
            "tensor": {
              "dtype": "DT_FLOAT",
              "tensorShape": {
                "dim": [
                  {
                    "size": "1"
                  },
                  {
                    "size": "1"
                  },
                  {
                    "size": "144"
                  },
                  {
                    "size": "24"
                  }
                ]
              }
            }
          },
          "dtype": {
            "type": "DT_FLOAT"
          }
        }
      },
      {
        "name": "StatefulPartitionedCall/model/ff1fe8d48e3c45a1b58f9cae3ad95deb/StatefulPartitionedCall/StatefulPartitionedCall/sequential/StatefulPartitionedCall/efficientnetb0/StatefulPartitionedCall/block2b_project_conv/StatefulPartitionedCall/Conv2D_bn_offset",
        "op": "Const",
        "attr": {
          "value": {
            "tensor": {
              "dtype": "DT_FLOAT",
              "tensorShape": {
                "dim": [
                  {
                    "size": "24"
                  }
                ]
              }
            }
          },
          "dtype": {
            "type": "DT_FLOAT"
          }
        }
      },
      {
        "name": "StatefulPartitionedCall/model/1e9cafc363934eb1b8c67ca3830c5901/StatefulPartitionedCall/StatefulPartitionedCall/sequential_3/StatefulPartitionedCall/efficientnetb0/StatefulPartitionedCall/block2b_project_conv/StatefulPartitionedCall/Conv2D_weights",
        "op": "Const",
        "attr": {
          "value": {
            "tensor": {
              "dtype": "DT_FLOAT",
              "tensorShape": {
                "dim": [
                  {
                    "size": "1"
                  },
                  {
                    "size": "1"
                  },
                  {
                    "size": "144"
                  },
                  {
                    "size": "24"
                  }
                ]
              }
            }
          },
          "dtype": {
            "type": "DT_FLOAT"
          }
        }
      },
      {
        "name": "StatefulPartitionedCall/model/1e9cafc363934eb1b8c67ca3830c5901/StatefulPartitionedCall/StatefulPartitionedCall/sequential_3/StatefulPartitionedCall/efficientnetb0/StatefulPartitionedCall/block2b_project_conv/StatefulPartitionedCall/Conv2D_bn_offset",
        "op": "Const",
        "attr": {
          "value": {
            "tensor": {
              "dtype": "DT_FLOAT",
              "tensorShape": {
                "dim": [
                  {
                    "size": "24"
                  }
                ]
              }
            }
          },
          "dtype": {
            "type": "DT_FLOAT"
          }
        }
      },
      {
        "name": "StatefulPartitionedCall/model/ff1fe8d48e3c45a1b58f9cae3ad95deb/StatefulPartitionedCall/StatefulPartitionedCall/sequential/StatefulPartitionedCall/efficientnetb0/StatefulPartitionedCall/block3a_expand_conv/StatefulPartitionedCall/Conv2D_weights",
        "op": "Const",
        "attr": {
          "value": {
            "tensor": {
              "dtype": "DT_FLOAT",
              "tensorShape": {
                "dim": [
                  {
                    "size": "1"
                  },
                  {
                    "size": "1"
                  },
                  {
                    "size": "24"
                  },
                  {
                    "size": "144"
                  }
                ]
              }
            }
          },
          "dtype": {
            "type": "DT_FLOAT"
          }
        }
      },
      {
        "name": "StatefulPartitionedCall/model/ff1fe8d48e3c45a1b58f9cae3ad95deb/StatefulPartitionedCall/StatefulPartitionedCall/sequential/StatefulPartitionedCall/efficientnetb0/StatefulPartitionedCall/block3a_expand_conv/StatefulPartitionedCall/Conv2D_bn_offset",
        "op": "Const",
        "attr": {
          "value": {
            "tensor": {
              "dtype": "DT_FLOAT",
              "tensorShape": {
                "dim": [
                  {
                    "size": "144"
                  }
                ]
              }
            }
          },
          "dtype": {
            "type": "DT_FLOAT"
          }
        }
      },
      {
        "name": "StatefulPartitionedCall/model/1e9cafc363934eb1b8c67ca3830c5901/StatefulPartitionedCall/StatefulPartitionedCall/sequential_3/StatefulPartitionedCall/efficientnetb0/StatefulPartitionedCall/block3a_expand_conv/StatefulPartitionedCall/Conv2D_weights",
        "op": "Const",
        "attr": {
          "value": {
            "tensor": {
              "dtype": "DT_FLOAT",
              "tensorShape": {
                "dim": [
                  {
                    "size": "1"
                  },
                  {
                    "size": "1"
                  },
                  {
                    "size": "24"
                  },
                  {
                    "size": "144"
                  }
                ]
              }
            }
          },
          "dtype": {
            "type": "DT_FLOAT"
          }
        }
      },
      {
        "name": "StatefulPartitionedCall/model/1e9cafc363934eb1b8c67ca3830c5901/StatefulPartitionedCall/StatefulPartitionedCall/sequential_3/StatefulPartitionedCall/efficientnetb0/StatefulPartitionedCall/block6d_dwconv/StatefulPartitionedCall/depthwise_weights",
        "op": "Const",
        "attr": {
          "value": {
            "tensor": {
              "dtype": "DT_FLOAT",
              "tensorShape": {
                "dim": [
                  {
                    "size": "5"
                  },
                  {
                    "size": "5"
                  },
                  {
                    "size": "1152"
                  },
                  {
                    "size": "1"
                  }
                ]
              }
            }
          },
          "dtype": {
            "type": "DT_FLOAT"
          }
        }
      },
      {
        "name": "StatefulPartitionedCall/model/1e9cafc363934eb1b8c67ca3830c5901/StatefulPartitionedCall/StatefulPartitionedCall/sequential_3/StatefulPartitionedCall/efficientnetb0/StatefulPartitionedCall/block3a_expand_conv/StatefulPartitionedCall/Conv2D_bn_offset",
        "op": "Const",
        "attr": {
          "value": {
            "tensor": {
              "dtype": "DT_FLOAT",
              "tensorShape": {
                "dim": [
                  {
                    "size": "144"
                  }
                ]
              }
            }
          },
          "dtype": {
            "type": "DT_FLOAT"
          }
        }
      },
      {
        "name": "StatefulPartitionedCall/model/ff1fe8d48e3c45a1b58f9cae3ad95deb/StatefulPartitionedCall/StatefulPartitionedCall/sequential/StatefulPartitionedCall/efficientnetb0/StatefulPartitionedCall/block3a_dwconv/StatefulPartitionedCall/depthwise_weights",
        "op": "Const",
        "attr": {
          "value": {
            "tensor": {
              "dtype": "DT_FLOAT",
              "tensorShape": {
                "dim": [
                  {
                    "size": "5"
                  },
                  {
                    "size": "5"
                  },
                  {
                    "size": "144"
                  },
                  {
                    "size": "1"
                  }
                ]
              }
            }
          },
          "dtype": {
            "type": "DT_FLOAT"
          }
        }
      },
      {
        "name": "StatefulPartitionedCall/model/ff1fe8d48e3c45a1b58f9cae3ad95deb/StatefulPartitionedCall/StatefulPartitionedCall/sequential/StatefulPartitionedCall/efficientnetb0/StatefulPartitionedCall/block3a_dwconv/StatefulPartitionedCall/depthwise_bn_offset",
        "op": "Const",
        "attr": {
          "value": {
            "tensor": {
              "dtype": "DT_FLOAT",
              "tensorShape": {
                "dim": [
                  {
                    "size": "144"
                  }
                ]
              }
            }
          },
          "dtype": {
            "type": "DT_FLOAT"
          }
        }
      },
      {
        "name": "StatefulPartitionedCall/model/1e9cafc363934eb1b8c67ca3830c5901/StatefulPartitionedCall/StatefulPartitionedCall/sequential_3/StatefulPartitionedCall/efficientnetb0/StatefulPartitionedCall/block6d_dwconv/StatefulPartitionedCall/depthwise_bn_offset",
        "op": "Const",
        "attr": {
          "value": {
            "tensor": {
              "dtype": "DT_FLOAT",
              "tensorShape": {
                "dim": [
                  {
                    "size": "1152"
                  }
                ]
              }
            }
          },
          "dtype": {
            "type": "DT_FLOAT"
          }
        }
      },
      {
        "name": "StatefulPartitionedCall/model/1e9cafc363934eb1b8c67ca3830c5901/StatefulPartitionedCall/StatefulPartitionedCall/sequential_3/StatefulPartitionedCall/efficientnetb0/StatefulPartitionedCall/block3a_dwconv/StatefulPartitionedCall/depthwise_weights",
        "op": "Const",
        "attr": {
          "value": {
            "tensor": {
              "dtype": "DT_FLOAT",
              "tensorShape": {
                "dim": [
                  {
                    "size": "5"
                  },
                  {
                    "size": "5"
                  },
                  {
                    "size": "144"
                  },
                  {
                    "size": "1"
                  }
                ]
              }
            }
          },
          "dtype": {
            "type": "DT_FLOAT"
          }
        }
      },
      {
        "name": "StatefulPartitionedCall/model/1e9cafc363934eb1b8c67ca3830c5901/StatefulPartitionedCall/StatefulPartitionedCall/sequential_3/StatefulPartitionedCall/efficientnetb0/StatefulPartitionedCall/block3a_dwconv/StatefulPartitionedCall/depthwise_bn_offset",
        "op": "Const",
        "attr": {
          "value": {
            "tensor": {
              "dtype": "DT_FLOAT",
              "tensorShape": {
                "dim": [
                  {
                    "size": "144"
                  }
                ]
              }
            }
          },
          "dtype": {
            "type": "DT_FLOAT"
          }
        }
      },
      {
        "name": "StatefulPartitionedCall/model/ff1fe8d48e3c45a1b58f9cae3ad95deb/StatefulPartitionedCall/StatefulPartitionedCall/sequential/StatefulPartitionedCall/efficientnetb0/StatefulPartitionedCall/block3a_project_conv/StatefulPartitionedCall/Conv2D_weights",
        "op": "Const",
        "attr": {
          "value": {
            "tensor": {
              "dtype": "DT_FLOAT",
              "tensorShape": {
                "dim": [
                  {
                    "size": "1"
                  },
                  {
                    "size": "1"
                  },
                  {
                    "size": "144"
                  },
                  {
                    "size": "40"
                  }
                ]
              }
            }
          },
          "dtype": {
            "type": "DT_FLOAT"
          }
        }
      },
      {
        "name": "StatefulPartitionedCall/model/ff1fe8d48e3c45a1b58f9cae3ad95deb/StatefulPartitionedCall/StatefulPartitionedCall/sequential/StatefulPartitionedCall/efficientnetb0/StatefulPartitionedCall/block3a_project_conv/StatefulPartitionedCall/Conv2D_bn_offset",
        "op": "Const",
        "attr": {
          "value": {
            "tensor": {
              "dtype": "DT_FLOAT",
              "tensorShape": {
                "dim": [
                  {
                    "size": "40"
                  }
                ]
              }
            }
          },
          "dtype": {
            "type": "DT_FLOAT"
          }
        }
      },
      {
        "name": "StatefulPartitionedCall/model/1e9cafc363934eb1b8c67ca3830c5901/StatefulPartitionedCall/StatefulPartitionedCall/sequential_3/StatefulPartitionedCall/efficientnetb0/StatefulPartitionedCall/block3a_project_conv/StatefulPartitionedCall/Conv2D_weights",
        "op": "Const",
        "attr": {
          "value": {
            "tensor": {
              "dtype": "DT_FLOAT",
              "tensorShape": {
                "dim": [
                  {
                    "size": "1"
                  },
                  {
                    "size": "1"
                  },
                  {
                    "size": "144"
                  },
                  {
                    "size": "40"
                  }
                ]
              }
            }
          },
          "dtype": {
            "type": "DT_FLOAT"
          }
        }
      },
      {
        "name": "StatefulPartitionedCall/model/1e9cafc363934eb1b8c67ca3830c5901/StatefulPartitionedCall/StatefulPartitionedCall/sequential_3/StatefulPartitionedCall/efficientnetb0/StatefulPartitionedCall/block3a_project_conv/StatefulPartitionedCall/Conv2D_bn_offset",
        "op": "Const",
        "attr": {
          "value": {
            "tensor": {
              "dtype": "DT_FLOAT",
              "tensorShape": {
                "dim": [
                  {
                    "size": "40"
                  }
                ]
              }
            }
          },
          "dtype": {
            "type": "DT_FLOAT"
          }
        }
      },
      {
        "name": "StatefulPartitionedCall/model/ff1fe8d48e3c45a1b58f9cae3ad95deb/StatefulPartitionedCall/StatefulPartitionedCall/sequential/StatefulPartitionedCall/efficientnetb0/StatefulPartitionedCall/block3b_expand_conv/StatefulPartitionedCall/Conv2D_weights",
        "op": "Const",
        "attr": {
          "value": {
            "tensor": {
              "dtype": "DT_FLOAT",
              "tensorShape": {
                "dim": [
                  {
                    "size": "1"
                  },
                  {
                    "size": "1"
                  },
                  {
                    "size": "40"
                  },
                  {
                    "size": "240"
                  }
                ]
              }
            }
          },
          "dtype": {
            "type": "DT_FLOAT"
          }
        }
      },
      {
        "name": "StatefulPartitionedCall/model/ff1fe8d48e3c45a1b58f9cae3ad95deb/StatefulPartitionedCall/StatefulPartitionedCall/sequential/StatefulPartitionedCall/efficientnetb0/StatefulPartitionedCall/block3b_expand_conv/StatefulPartitionedCall/Conv2D_bn_offset",
        "op": "Const",
        "attr": {
          "value": {
            "tensor": {
              "dtype": "DT_FLOAT",
              "tensorShape": {
                "dim": [
                  {
                    "size": "240"
                  }
                ]
              }
            }
          },
          "dtype": {
            "type": "DT_FLOAT"
          }
        }
      },
      {
        "name": "StatefulPartitionedCall/model/1e9cafc363934eb1b8c67ca3830c5901/StatefulPartitionedCall/StatefulPartitionedCall/sequential_3/StatefulPartitionedCall/efficientnetb0/StatefulPartitionedCall/block3b_expand_conv/StatefulPartitionedCall/Conv2D_weights",
        "op": "Const",
        "attr": {
          "value": {
            "tensor": {
              "dtype": "DT_FLOAT",
              "tensorShape": {
                "dim": [
                  {
                    "size": "1"
                  },
                  {
                    "size": "1"
                  },
                  {
                    "size": "40"
                  },
                  {
                    "size": "240"
                  }
                ]
              }
            }
          },
          "dtype": {
            "type": "DT_FLOAT"
          }
        }
      },
      {
        "name": "StatefulPartitionedCall/model/1e9cafc363934eb1b8c67ca3830c5901/StatefulPartitionedCall/StatefulPartitionedCall/sequential_3/StatefulPartitionedCall/efficientnetb0/StatefulPartitionedCall/block3b_expand_conv/StatefulPartitionedCall/Conv2D_bn_offset",
        "op": "Const",
        "attr": {
          "value": {
            "tensor": {
              "dtype": "DT_FLOAT",
              "tensorShape": {
                "dim": [
                  {
                    "size": "240"
                  }
                ]
              }
            }
          },
          "dtype": {
            "type": "DT_FLOAT"
          }
        }
      },
      {
        "name": "StatefulPartitionedCall/model/ff1fe8d48e3c45a1b58f9cae3ad95deb/StatefulPartitionedCall/StatefulPartitionedCall/sequential/StatefulPartitionedCall/efficientnetb0/StatefulPartitionedCall/block3b_dwconv/StatefulPartitionedCall/depthwise_weights",
        "op": "Const",
        "attr": {
          "value": {
            "tensor": {
              "dtype": "DT_FLOAT",
              "tensorShape": {
                "dim": [
                  {
                    "size": "5"
                  },
                  {
                    "size": "5"
                  },
                  {
                    "size": "240"
                  },
                  {
                    "size": "1"
                  }
                ]
              }
            }
          },
          "dtype": {
            "type": "DT_FLOAT"
          }
        }
      },
      {
        "name": "StatefulPartitionedCall/model/ff1fe8d48e3c45a1b58f9cae3ad95deb/StatefulPartitionedCall/StatefulPartitionedCall/sequential/StatefulPartitionedCall/efficientnetb0/StatefulPartitionedCall/block3b_dwconv/StatefulPartitionedCall/depthwise_bn_offset",
        "op": "Const",
        "attr": {
          "value": {
            "tensor": {
              "dtype": "DT_FLOAT",
              "tensorShape": {
                "dim": [
                  {
                    "size": "240"
                  }
                ]
              }
            }
          },
          "dtype": {
            "type": "DT_FLOAT"
          }
        }
      },
      {
        "name": "StatefulPartitionedCall/model/1e9cafc363934eb1b8c67ca3830c5901/StatefulPartitionedCall/StatefulPartitionedCall/sequential_3/StatefulPartitionedCall/efficientnetb0/StatefulPartitionedCall/block3b_dwconv/StatefulPartitionedCall/depthwise_weights",
        "op": "Const",
        "attr": {
          "value": {
            "tensor": {
              "dtype": "DT_FLOAT",
              "tensorShape": {
                "dim": [
                  {
                    "size": "5"
                  },
                  {
                    "size": "5"
                  },
                  {
                    "size": "240"
                  },
                  {
                    "size": "1"
                  }
                ]
              }
            }
          },
          "dtype": {
            "type": "DT_FLOAT"
          }
        }
      },
      {
        "name": "StatefulPartitionedCall/model/1e9cafc363934eb1b8c67ca3830c5901/StatefulPartitionedCall/StatefulPartitionedCall/sequential_3/StatefulPartitionedCall/efficientnetb0/StatefulPartitionedCall/block3b_dwconv/StatefulPartitionedCall/depthwise_bn_offset",
        "op": "Const",
        "attr": {
          "value": {
            "tensor": {
              "dtype": "DT_FLOAT",
              "tensorShape": {
                "dim": [
                  {
                    "size": "240"
                  }
                ]
              }
            }
          },
          "dtype": {
            "type": "DT_FLOAT"
          }
        }
      },
      {
        "name": "StatefulPartitionedCall/model/ff1fe8d48e3c45a1b58f9cae3ad95deb/StatefulPartitionedCall/StatefulPartitionedCall/sequential/StatefulPartitionedCall/efficientnetb0/StatefulPartitionedCall/block3b_project_conv/StatefulPartitionedCall/Conv2D_weights",
        "op": "Const",
        "attr": {
          "value": {
            "tensor": {
              "dtype": "DT_FLOAT",
              "tensorShape": {
                "dim": [
                  {
                    "size": "1"
                  },
                  {
                    "size": "1"
                  },
                  {
                    "size": "240"
                  },
                  {
                    "size": "40"
                  }
                ]
              }
            }
          },
          "dtype": {
            "type": "DT_FLOAT"
          }
        }
      },
      {
        "name": "StatefulPartitionedCall/model/ff1fe8d48e3c45a1b58f9cae3ad95deb/StatefulPartitionedCall/StatefulPartitionedCall/sequential/StatefulPartitionedCall/efficientnetb0/StatefulPartitionedCall/block3b_project_conv/StatefulPartitionedCall/Conv2D_bn_offset",
        "op": "Const",
        "attr": {
          "value": {
            "tensor": {
              "dtype": "DT_FLOAT",
              "tensorShape": {
                "dim": [
                  {
                    "size": "40"
                  }
                ]
              }
            }
          },
          "dtype": {
            "type": "DT_FLOAT"
          }
        }
      },
      {
        "name": "StatefulPartitionedCall/model/1e9cafc363934eb1b8c67ca3830c5901/StatefulPartitionedCall/StatefulPartitionedCall/sequential_3/StatefulPartitionedCall/efficientnetb0/StatefulPartitionedCall/block3b_project_conv/StatefulPartitionedCall/Conv2D_weights",
        "op": "Const",
        "attr": {
          "value": {
            "tensor": {
              "dtype": "DT_FLOAT",
              "tensorShape": {
                "dim": [
                  {
                    "size": "1"
                  },
                  {
                    "size": "1"
                  },
                  {
                    "size": "240"
                  },
                  {
                    "size": "40"
                  }
                ]
              }
            }
          },
          "dtype": {
            "type": "DT_FLOAT"
          }
        }
      },
      {
        "name": "StatefulPartitionedCall/model/1e9cafc363934eb1b8c67ca3830c5901/StatefulPartitionedCall/StatefulPartitionedCall/sequential_3/StatefulPartitionedCall/efficientnetb0/StatefulPartitionedCall/block3b_project_conv/StatefulPartitionedCall/Conv2D_bn_offset",
        "op": "Const",
        "attr": {
          "value": {
            "tensor": {
              "dtype": "DT_FLOAT",
              "tensorShape": {
                "dim": [
                  {
                    "size": "40"
                  }
                ]
              }
            }
          },
          "dtype": {
            "type": "DT_FLOAT"
          }
        }
      },
      {
        "name": "StatefulPartitionedCall/model/ff1fe8d48e3c45a1b58f9cae3ad95deb/StatefulPartitionedCall/StatefulPartitionedCall/sequential/StatefulPartitionedCall/efficientnetb0/StatefulPartitionedCall/block4a_expand_conv/StatefulPartitionedCall/Conv2D_weights",
        "op": "Const",
        "attr": {
          "value": {
            "tensor": {
              "dtype": "DT_FLOAT",
              "tensorShape": {
                "dim": [
                  {
                    "size": "1"
                  },
                  {
                    "size": "1"
                  },
                  {
                    "size": "40"
                  },
                  {
                    "size": "240"
                  }
                ]
              }
            }
          },
          "dtype": {
            "type": "DT_FLOAT"
          }
        }
      },
      {
        "name": "StatefulPartitionedCall/model/ff1fe8d48e3c45a1b58f9cae3ad95deb/StatefulPartitionedCall/StatefulPartitionedCall/sequential/StatefulPartitionedCall/efficientnetb0/StatefulPartitionedCall/block4a_expand_conv/StatefulPartitionedCall/Conv2D_bn_offset",
        "op": "Const",
        "attr": {
          "value": {
            "tensor": {
              "dtype": "DT_FLOAT",
              "tensorShape": {
                "dim": [
                  {
                    "size": "240"
                  }
                ]
              }
            }
          },
          "dtype": {
            "type": "DT_FLOAT"
          }
        }
      },
      {
        "name": "StatefulPartitionedCall/model/1e9cafc363934eb1b8c67ca3830c5901/StatefulPartitionedCall/StatefulPartitionedCall/sequential_3/StatefulPartitionedCall/efficientnetb0/StatefulPartitionedCall/block4a_expand_conv/StatefulPartitionedCall/Conv2D_weights",
        "op": "Const",
        "attr": {
          "value": {
            "tensor": {
              "dtype": "DT_FLOAT",
              "tensorShape": {
                "dim": [
                  {
                    "size": "1"
                  },
                  {
                    "size": "1"
                  },
                  {
                    "size": "40"
                  },
                  {
                    "size": "240"
                  }
                ]
              }
            }
          },
          "dtype": {
            "type": "DT_FLOAT"
          }
        }
      },
      {
        "name": "StatefulPartitionedCall/model/1e9cafc363934eb1b8c67ca3830c5901/StatefulPartitionedCall/StatefulPartitionedCall/sequential_3/StatefulPartitionedCall/efficientnetb0/StatefulPartitionedCall/block4a_expand_conv/StatefulPartitionedCall/Conv2D_bn_offset",
        "op": "Const",
        "attr": {
          "value": {
            "tensor": {
              "dtype": "DT_FLOAT",
              "tensorShape": {
                "dim": [
                  {
                    "size": "240"
                  }
                ]
              }
            }
          },
          "dtype": {
            "type": "DT_FLOAT"
          }
        }
      },
      {
        "name": "StatefulPartitionedCall/model/ff1fe8d48e3c45a1b58f9cae3ad95deb/StatefulPartitionedCall/StatefulPartitionedCall/sequential/StatefulPartitionedCall/efficientnetb0/StatefulPartitionedCall/block4a_dwconv/StatefulPartitionedCall/depthwise_weights",
        "op": "Const",
        "attr": {
          "value": {
            "tensor": {
              "dtype": "DT_FLOAT",
              "tensorShape": {
                "dim": [
                  {
                    "size": "3"
                  },
                  {
                    "size": "3"
                  },
                  {
                    "size": "240"
                  },
                  {
                    "size": "1"
                  }
                ]
              }
            }
          },
          "dtype": {
            "type": "DT_FLOAT"
          }
        }
      },
      {
        "name": "StatefulPartitionedCall/model/ff1fe8d48e3c45a1b58f9cae3ad95deb/StatefulPartitionedCall/StatefulPartitionedCall/sequential/StatefulPartitionedCall/efficientnetb0/StatefulPartitionedCall/block4a_dwconv/StatefulPartitionedCall/depthwise_bn_offset",
        "op": "Const",
        "attr": {
          "value": {
            "tensor": {
              "dtype": "DT_FLOAT",
              "tensorShape": {
                "dim": [
                  {
                    "size": "240"
                  }
                ]
              }
            }
          },
          "dtype": {
            "type": "DT_FLOAT"
          }
        }
      },
      {
        "name": "StatefulPartitionedCall/model/1e9cafc363934eb1b8c67ca3830c5901/StatefulPartitionedCall/StatefulPartitionedCall/sequential_3/StatefulPartitionedCall/efficientnetb0/StatefulPartitionedCall/block4a_dwconv/StatefulPartitionedCall/depthwise_weights",
        "op": "Const",
        "attr": {
          "value": {
            "tensor": {
              "dtype": "DT_FLOAT",
              "tensorShape": {
                "dim": [
                  {
                    "size": "3"
                  },
                  {
                    "size": "3"
                  },
                  {
                    "size": "240"
                  },
                  {
                    "size": "1"
                  }
                ]
              }
            }
          },
          "dtype": {
            "type": "DT_FLOAT"
          }
        }
      },
      {
        "name": "StatefulPartitionedCall/model/1e9cafc363934eb1b8c67ca3830c5901/StatefulPartitionedCall/StatefulPartitionedCall/sequential_3/StatefulPartitionedCall/efficientnetb0/StatefulPartitionedCall/block4a_dwconv/StatefulPartitionedCall/depthwise_bn_offset",
        "op": "Const",
        "attr": {
          "value": {
            "tensor": {
              "dtype": "DT_FLOAT",
              "tensorShape": {
                "dim": [
                  {
                    "size": "240"
                  }
                ]
              }
            }
          },
          "dtype": {
            "type": "DT_FLOAT"
          }
        }
      },
      {
        "name": "StatefulPartitionedCall/model/ff1fe8d48e3c45a1b58f9cae3ad95deb/StatefulPartitionedCall/StatefulPartitionedCall/sequential/StatefulPartitionedCall/efficientnetb0/StatefulPartitionedCall/block6d_project_conv/StatefulPartitionedCall/Conv2D_weights",
        "op": "Const",
        "attr": {
          "value": {
            "tensor": {
              "dtype": "DT_FLOAT",
              "tensorShape": {
                "dim": [
                  {
                    "size": "1"
                  },
                  {
                    "size": "1"
                  },
                  {
                    "size": "1152"
                  },
                  {
                    "size": "192"
                  }
                ]
              }
            }
          },
          "dtype": {
            "type": "DT_FLOAT"
          }
        }
      },
      {
        "name": "StatefulPartitionedCall/model/ff1fe8d48e3c45a1b58f9cae3ad95deb/StatefulPartitionedCall/StatefulPartitionedCall/sequential/StatefulPartitionedCall/efficientnetb0/StatefulPartitionedCall/block4a_project_conv/StatefulPartitionedCall/Conv2D_weights",
        "op": "Const",
        "attr": {
          "value": {
            "tensor": {
              "dtype": "DT_FLOAT",
              "tensorShape": {
                "dim": [
                  {
                    "size": "1"
                  },
                  {
                    "size": "1"
                  },
                  {
                    "size": "240"
                  },
                  {
                    "size": "80"
                  }
                ]
              }
            }
          },
          "dtype": {
            "type": "DT_FLOAT"
          }
        }
      },
      {
        "name": "StatefulPartitionedCall/model/ff1fe8d48e3c45a1b58f9cae3ad95deb/StatefulPartitionedCall/StatefulPartitionedCall/sequential/StatefulPartitionedCall/efficientnetb0/StatefulPartitionedCall/block6d_project_conv/StatefulPartitionedCall/Conv2D_bn_offset",
        "op": "Const",
        "attr": {
          "value": {
            "tensor": {
              "dtype": "DT_FLOAT",
              "tensorShape": {
                "dim": [
                  {
                    "size": "192"
                  }
                ]
              }
            }
          },
          "dtype": {
            "type": "DT_FLOAT"
          }
        }
      },
      {
        "name": "StatefulPartitionedCall/model/ff1fe8d48e3c45a1b58f9cae3ad95deb/StatefulPartitionedCall/StatefulPartitionedCall/sequential/StatefulPartitionedCall/efficientnetb0/StatefulPartitionedCall/block4a_project_conv/StatefulPartitionedCall/Conv2D_bn_offset",
        "op": "Const",
        "attr": {
          "value": {
            "tensor": {
              "dtype": "DT_FLOAT",
              "tensorShape": {
                "dim": [
                  {
                    "size": "80"
                  }
                ]
              }
            }
          },
          "dtype": {
            "type": "DT_FLOAT"
          }
        }
      },
      {
        "name": "StatefulPartitionedCall/model/1e9cafc363934eb1b8c67ca3830c5901/StatefulPartitionedCall/StatefulPartitionedCall/sequential_3/StatefulPartitionedCall/efficientnetb0/StatefulPartitionedCall/block4a_project_conv/StatefulPartitionedCall/Conv2D_weights",
        "op": "Const",
        "attr": {
          "value": {
            "tensor": {
              "dtype": "DT_FLOAT",
              "tensorShape": {
                "dim": [
                  {
                    "size": "1"
                  },
                  {
                    "size": "1"
                  },
                  {
                    "size": "240"
                  },
                  {
                    "size": "80"
                  }
                ]
              }
            }
          },
          "dtype": {
            "type": "DT_FLOAT"
          }
        }
      },
      {
        "name": "StatefulPartitionedCall/model/1e9cafc363934eb1b8c67ca3830c5901/StatefulPartitionedCall/StatefulPartitionedCall/sequential_3/StatefulPartitionedCall/efficientnetb0/StatefulPartitionedCall/block4a_project_conv/StatefulPartitionedCall/Conv2D_bn_offset",
        "op": "Const",
        "attr": {
          "value": {
            "tensor": {
              "dtype": "DT_FLOAT",
              "tensorShape": {
                "dim": [
                  {
                    "size": "80"
                  }
                ]
              }
            }
          },
          "dtype": {
            "type": "DT_FLOAT"
          }
        }
      },
      {
        "name": "StatefulPartitionedCall/model/ff1fe8d48e3c45a1b58f9cae3ad95deb/StatefulPartitionedCall/StatefulPartitionedCall/sequential/StatefulPartitionedCall/efficientnetb0/StatefulPartitionedCall/block4b_expand_conv/StatefulPartitionedCall/Conv2D_weights",
        "op": "Const",
        "attr": {
          "value": {
            "tensor": {
              "dtype": "DT_FLOAT",
              "tensorShape": {
                "dim": [
                  {
                    "size": "1"
                  },
                  {
                    "size": "1"
                  },
                  {
                    "size": "80"
                  },
                  {
                    "size": "480"
                  }
                ]
              }
            }
          },
          "dtype": {
            "type": "DT_FLOAT"
          }
        }
      },
      {
        "name": "StatefulPartitionedCall/model/ff1fe8d48e3c45a1b58f9cae3ad95deb/StatefulPartitionedCall/StatefulPartitionedCall/sequential/StatefulPartitionedCall/efficientnetb0/StatefulPartitionedCall/block4b_expand_conv/StatefulPartitionedCall/Conv2D_bn_offset",
        "op": "Const",
        "attr": {
          "value": {
            "tensor": {
              "dtype": "DT_FLOAT",
              "tensorShape": {
                "dim": [
                  {
                    "size": "480"
                  }
                ]
              }
            }
          },
          "dtype": {
            "type": "DT_FLOAT"
          }
        }
      },
      {
        "name": "StatefulPartitionedCall/model/1e9cafc363934eb1b8c67ca3830c5901/StatefulPartitionedCall/StatefulPartitionedCall/sequential_3/StatefulPartitionedCall/efficientnetb0/StatefulPartitionedCall/block4b_expand_conv/StatefulPartitionedCall/Conv2D_weights",
        "op": "Const",
        "attr": {
          "value": {
            "tensor": {
              "dtype": "DT_FLOAT",
              "tensorShape": {
                "dim": [
                  {
                    "size": "1"
                  },
                  {
                    "size": "1"
                  },
                  {
                    "size": "80"
                  },
                  {
                    "size": "480"
                  }
                ]
              }
            }
          },
          "dtype": {
            "type": "DT_FLOAT"
          }
        }
      },
      {
        "name": "StatefulPartitionedCall/model/1e9cafc363934eb1b8c67ca3830c5901/StatefulPartitionedCall/StatefulPartitionedCall/sequential_3/StatefulPartitionedCall/efficientnetb0/StatefulPartitionedCall/block6d_project_conv/StatefulPartitionedCall/Conv2D_weights",
        "op": "Const",
        "attr": {
          "value": {
            "tensor": {
              "dtype": "DT_FLOAT",
              "tensorShape": {
                "dim": [
                  {
                    "size": "1"
                  },
                  {
                    "size": "1"
                  },
                  {
                    "size": "1152"
                  },
                  {
                    "size": "192"
                  }
                ]
              }
            }
          },
          "dtype": {
            "type": "DT_FLOAT"
          }
        }
      },
      {
        "name": "StatefulPartitionedCall/model/1e9cafc363934eb1b8c67ca3830c5901/StatefulPartitionedCall/StatefulPartitionedCall/sequential_3/StatefulPartitionedCall/efficientnetb0/StatefulPartitionedCall/block4b_expand_conv/StatefulPartitionedCall/Conv2D_bn_offset",
        "op": "Const",
        "attr": {
          "value": {
            "tensor": {
              "dtype": "DT_FLOAT",
              "tensorShape": {
                "dim": [
                  {
                    "size": "480"
                  }
                ]
              }
            }
          },
          "dtype": {
            "type": "DT_FLOAT"
          }
        }
      },
      {
        "name": "StatefulPartitionedCall/model/ff1fe8d48e3c45a1b58f9cae3ad95deb/StatefulPartitionedCall/StatefulPartitionedCall/sequential/StatefulPartitionedCall/efficientnetb0/StatefulPartitionedCall/block4b_dwconv/StatefulPartitionedCall/depthwise_weights",
        "op": "Const",
        "attr": {
          "value": {
            "tensor": {
              "dtype": "DT_FLOAT",
              "tensorShape": {
                "dim": [
                  {
                    "size": "3"
                  },
                  {
                    "size": "3"
                  },
                  {
                    "size": "480"
                  },
                  {
                    "size": "1"
                  }
                ]
              }
            }
          },
          "dtype": {
            "type": "DT_FLOAT"
          }
        }
      },
      {
        "name": "StatefulPartitionedCall/model/ff1fe8d48e3c45a1b58f9cae3ad95deb/StatefulPartitionedCall/StatefulPartitionedCall/sequential/StatefulPartitionedCall/efficientnetb0/StatefulPartitionedCall/block4b_dwconv/StatefulPartitionedCall/depthwise_bn_offset",
        "op": "Const",
        "attr": {
          "value": {
            "tensor": {
              "dtype": "DT_FLOAT",
              "tensorShape": {
                "dim": [
                  {
                    "size": "480"
                  }
                ]
              }
            }
          },
          "dtype": {
            "type": "DT_FLOAT"
          }
        }
      },
      {
        "name": "StatefulPartitionedCall/model/1e9cafc363934eb1b8c67ca3830c5901/StatefulPartitionedCall/StatefulPartitionedCall/sequential_3/StatefulPartitionedCall/efficientnetb0/StatefulPartitionedCall/block6d_project_conv/StatefulPartitionedCall/Conv2D_bn_offset",
        "op": "Const",
        "attr": {
          "value": {
            "tensor": {
              "dtype": "DT_FLOAT",
              "tensorShape": {
                "dim": [
                  {
                    "size": "192"
                  }
                ]
              }
            }
          },
          "dtype": {
            "type": "DT_FLOAT"
          }
        }
      },
      {
        "name": "StatefulPartitionedCall/model/1e9cafc363934eb1b8c67ca3830c5901/StatefulPartitionedCall/StatefulPartitionedCall/sequential_3/StatefulPartitionedCall/efficientnetb0/StatefulPartitionedCall/block4b_dwconv/StatefulPartitionedCall/depthwise_weights",
        "op": "Const",
        "attr": {
          "value": {
            "tensor": {
              "dtype": "DT_FLOAT",
              "tensorShape": {
                "dim": [
                  {
                    "size": "3"
                  },
                  {
                    "size": "3"
                  },
                  {
                    "size": "480"
                  },
                  {
                    "size": "1"
                  }
                ]
              }
            }
          },
          "dtype": {
            "type": "DT_FLOAT"
          }
        }
      },
      {
        "name": "StatefulPartitionedCall/model/1e9cafc363934eb1b8c67ca3830c5901/StatefulPartitionedCall/StatefulPartitionedCall/sequential_3/StatefulPartitionedCall/efficientnetb0/StatefulPartitionedCall/block4b_dwconv/StatefulPartitionedCall/depthwise_bn_offset",
        "op": "Const",
        "attr": {
          "value": {
            "tensor": {
              "dtype": "DT_FLOAT",
              "tensorShape": {
                "dim": [
                  {
                    "size": "480"
                  }
                ]
              }
            }
          },
          "dtype": {
            "type": "DT_FLOAT"
          }
        }
      },
      {
        "name": "StatefulPartitionedCall/model/ff1fe8d48e3c45a1b58f9cae3ad95deb/StatefulPartitionedCall/StatefulPartitionedCall/sequential/StatefulPartitionedCall/efficientnetb0/StatefulPartitionedCall/block4b_project_conv/StatefulPartitionedCall/Conv2D_weights",
        "op": "Const",
        "attr": {
          "value": {
            "tensor": {
              "dtype": "DT_FLOAT",
              "tensorShape": {
                "dim": [
                  {
                    "size": "1"
                  },
                  {
                    "size": "1"
                  },
                  {
                    "size": "480"
                  },
                  {
                    "size": "80"
                  }
                ]
              }
            }
          },
          "dtype": {
            "type": "DT_FLOAT"
          }
        }
      },
      {
        "name": "StatefulPartitionedCall/model/ff1fe8d48e3c45a1b58f9cae3ad95deb/StatefulPartitionedCall/StatefulPartitionedCall/sequential/StatefulPartitionedCall/efficientnetb0/StatefulPartitionedCall/block7a_expand_conv/StatefulPartitionedCall/Conv2D_weights",
        "op": "Const",
        "attr": {
          "value": {
            "tensor": {
              "dtype": "DT_FLOAT",
              "tensorShape": {
                "dim": [
                  {
                    "size": "1"
                  },
                  {
                    "size": "1"
                  },
                  {
                    "size": "192"
                  },
                  {
                    "size": "1152"
                  }
                ]
              }
            }
          },
          "dtype": {
            "type": "DT_FLOAT"
          }
        }
      },
      {
        "name": "StatefulPartitionedCall/model/ff1fe8d48e3c45a1b58f9cae3ad95deb/StatefulPartitionedCall/StatefulPartitionedCall/sequential/StatefulPartitionedCall/efficientnetb0/StatefulPartitionedCall/block4b_project_conv/StatefulPartitionedCall/Conv2D_bn_offset",
        "op": "Const",
        "attr": {
          "value": {
            "tensor": {
              "dtype": "DT_FLOAT",
              "tensorShape": {
                "dim": [
                  {
                    "size": "80"
                  }
                ]
              }
            }
          },
          "dtype": {
            "type": "DT_FLOAT"
          }
        }
      },
      {
        "name": "StatefulPartitionedCall/model/1e9cafc363934eb1b8c67ca3830c5901/StatefulPartitionedCall/StatefulPartitionedCall/sequential_3/StatefulPartitionedCall/efficientnetb0/StatefulPartitionedCall/block4b_project_conv/StatefulPartitionedCall/Conv2D_weights",
        "op": "Const",
        "attr": {
          "value": {
            "tensor": {
              "dtype": "DT_FLOAT",
              "tensorShape": {
                "dim": [
                  {
                    "size": "1"
                  },
                  {
                    "size": "1"
                  },
                  {
                    "size": "480"
                  },
                  {
                    "size": "80"
                  }
                ]
              }
            }
          },
          "dtype": {
            "type": "DT_FLOAT"
          }
        }
      },
      {
        "name": "StatefulPartitionedCall/model/1e9cafc363934eb1b8c67ca3830c5901/StatefulPartitionedCall/StatefulPartitionedCall/sequential_3/StatefulPartitionedCall/efficientnetb0/StatefulPartitionedCall/block4b_project_conv/StatefulPartitionedCall/Conv2D_bn_offset",
        "op": "Const",
        "attr": {
          "value": {
            "tensor": {
              "dtype": "DT_FLOAT",
              "tensorShape": {
                "dim": [
                  {
                    "size": "80"
                  }
                ]
              }
            }
          },
          "dtype": {
            "type": "DT_FLOAT"
          }
        }
      },
      {
        "name": "StatefulPartitionedCall/model/ff1fe8d48e3c45a1b58f9cae3ad95deb/StatefulPartitionedCall/StatefulPartitionedCall/sequential/StatefulPartitionedCall/efficientnetb0/StatefulPartitionedCall/block4c_expand_conv/StatefulPartitionedCall/Conv2D_weights",
        "op": "Const",
        "attr": {
          "value": {
            "tensor": {
              "dtype": "DT_FLOAT",
              "tensorShape": {
                "dim": [
                  {
                    "size": "1"
                  },
                  {
                    "size": "1"
                  },
                  {
                    "size": "80"
                  },
                  {
                    "size": "480"
                  }
                ]
              }
            }
          },
          "dtype": {
            "type": "DT_FLOAT"
          }
        }
      },
      {
        "name": "StatefulPartitionedCall/model/ff1fe8d48e3c45a1b58f9cae3ad95deb/StatefulPartitionedCall/StatefulPartitionedCall/sequential/StatefulPartitionedCall/efficientnetb0/StatefulPartitionedCall/block7a_expand_conv/StatefulPartitionedCall/Conv2D_bn_offset",
        "op": "Const",
        "attr": {
          "value": {
            "tensor": {
              "dtype": "DT_FLOAT",
              "tensorShape": {
                "dim": [
                  {
                    "size": "1152"
                  }
                ]
              }
            }
          },
          "dtype": {
            "type": "DT_FLOAT"
          }
        }
      },
      {
        "name": "StatefulPartitionedCall/model/ff1fe8d48e3c45a1b58f9cae3ad95deb/StatefulPartitionedCall/StatefulPartitionedCall/sequential/StatefulPartitionedCall/efficientnetb0/StatefulPartitionedCall/block4c_expand_conv/StatefulPartitionedCall/Conv2D_bn_offset",
        "op": "Const",
        "attr": {
          "value": {
            "tensor": {
              "dtype": "DT_FLOAT",
              "tensorShape": {
                "dim": [
                  {
                    "size": "480"
                  }
                ]
              }
            }
          },
          "dtype": {
            "type": "DT_FLOAT"
          }
        }
      },
      {
        "name": "StatefulPartitionedCall/model/1e9cafc363934eb1b8c67ca3830c5901/StatefulPartitionedCall/StatefulPartitionedCall/sequential_3/StatefulPartitionedCall/efficientnetb0/StatefulPartitionedCall/block4c_expand_conv/StatefulPartitionedCall/Conv2D_weights",
        "op": "Const",
        "attr": {
          "value": {
            "tensor": {
              "dtype": "DT_FLOAT",
              "tensorShape": {
                "dim": [
                  {
                    "size": "1"
                  },
                  {
                    "size": "1"
                  },
                  {
                    "size": "80"
                  },
                  {
                    "size": "480"
                  }
                ]
              }
            }
          },
          "dtype": {
            "type": "DT_FLOAT"
          }
        }
      },
      {
        "name": "StatefulPartitionedCall/model/1e9cafc363934eb1b8c67ca3830c5901/StatefulPartitionedCall/StatefulPartitionedCall/sequential_3/StatefulPartitionedCall/efficientnetb0/StatefulPartitionedCall/block4c_expand_conv/StatefulPartitionedCall/Conv2D_bn_offset",
        "op": "Const",
        "attr": {
          "value": {
            "tensor": {
              "dtype": "DT_FLOAT",
              "tensorShape": {
                "dim": [
                  {
                    "size": "480"
                  }
                ]
              }
            }
          },
          "dtype": {
            "type": "DT_FLOAT"
          }
        }
      },
      {
        "name": "StatefulPartitionedCall/model/ff1fe8d48e3c45a1b58f9cae3ad95deb/StatefulPartitionedCall/StatefulPartitionedCall/sequential/StatefulPartitionedCall/efficientnetb0/StatefulPartitionedCall/block4c_dwconv/StatefulPartitionedCall/depthwise_weights",
        "op": "Const",
        "attr": {
          "value": {
            "tensor": {
              "dtype": "DT_FLOAT",
              "tensorShape": {
                "dim": [
                  {
                    "size": "3"
                  },
                  {
                    "size": "3"
                  },
                  {
                    "size": "480"
                  },
                  {
                    "size": "1"
                  }
                ]
              }
            }
          },
          "dtype": {
            "type": "DT_FLOAT"
          }
        }
      },
      {
        "name": "StatefulPartitionedCall/model/ff1fe8d48e3c45a1b58f9cae3ad95deb/StatefulPartitionedCall/StatefulPartitionedCall/sequential/StatefulPartitionedCall/efficientnetb0/StatefulPartitionedCall/block4c_dwconv/StatefulPartitionedCall/depthwise_bn_offset",
        "op": "Const",
        "attr": {
          "value": {
            "tensor": {
              "dtype": "DT_FLOAT",
              "tensorShape": {
                "dim": [
                  {
                    "size": "480"
                  }
                ]
              }
            }
          },
          "dtype": {
            "type": "DT_FLOAT"
          }
        }
      },
      {
        "name": "StatefulPartitionedCall/model/1e9cafc363934eb1b8c67ca3830c5901/StatefulPartitionedCall/StatefulPartitionedCall/sequential_3/StatefulPartitionedCall/efficientnetb0/StatefulPartitionedCall/block4c_dwconv/StatefulPartitionedCall/depthwise_weights",
        "op": "Const",
        "attr": {
          "value": {
            "tensor": {
              "dtype": "DT_FLOAT",
              "tensorShape": {
                "dim": [
                  {
                    "size": "3"
                  },
                  {
                    "size": "3"
                  },
                  {
                    "size": "480"
                  },
                  {
                    "size": "1"
                  }
                ]
              }
            }
          },
          "dtype": {
            "type": "DT_FLOAT"
          }
        }
      },
      {
        "name": "StatefulPartitionedCall/model/1e9cafc363934eb1b8c67ca3830c5901/StatefulPartitionedCall/StatefulPartitionedCall/sequential_3/StatefulPartitionedCall/efficientnetb0/StatefulPartitionedCall/block4c_dwconv/StatefulPartitionedCall/depthwise_bn_offset",
        "op": "Const",
        "attr": {
          "value": {
            "tensor": {
              "dtype": "DT_FLOAT",
              "tensorShape": {
                "dim": [
                  {
                    "size": "480"
                  }
                ]
              }
            }
          },
          "dtype": {
            "type": "DT_FLOAT"
          }
        }
      },
      {
        "name": "StatefulPartitionedCall/model/1e9cafc363934eb1b8c67ca3830c5901/StatefulPartitionedCall/StatefulPartitionedCall/sequential_3/StatefulPartitionedCall/efficientnetb0/StatefulPartitionedCall/block7a_expand_conv/StatefulPartitionedCall/Conv2D_weights",
        "op": "Const",
        "attr": {
          "value": {
            "tensor": {
              "dtype": "DT_FLOAT",
              "tensorShape": {
                "dim": [
                  {
                    "size": "1"
                  },
                  {
                    "size": "1"
                  },
                  {
                    "size": "192"
                  },
                  {
                    "size": "1152"
                  }
                ]
              }
            }
          },
          "dtype": {
            "type": "DT_FLOAT"
          }
        }
      },
      {
        "name": "StatefulPartitionedCall/model/ff1fe8d48e3c45a1b58f9cae3ad95deb/StatefulPartitionedCall/StatefulPartitionedCall/sequential/StatefulPartitionedCall/efficientnetb0/StatefulPartitionedCall/block4c_project_conv/StatefulPartitionedCall/Conv2D_weights",
        "op": "Const",
        "attr": {
          "value": {
            "tensor": {
              "dtype": "DT_FLOAT",
              "tensorShape": {
                "dim": [
                  {
                    "size": "1"
                  },
                  {
                    "size": "1"
                  },
                  {
                    "size": "480"
                  },
                  {
                    "size": "80"
                  }
                ]
              }
            }
          },
          "dtype": {
            "type": "DT_FLOAT"
          }
        }
      },
      {
        "name": "StatefulPartitionedCall/model/1e9cafc363934eb1b8c67ca3830c5901/StatefulPartitionedCall/StatefulPartitionedCall/sequential_3/StatefulPartitionedCall/efficientnetb0/StatefulPartitionedCall/block7a_expand_conv/StatefulPartitionedCall/Conv2D_bn_offset",
        "op": "Const",
        "attr": {
          "value": {
            "tensor": {
              "dtype": "DT_FLOAT",
              "tensorShape": {
                "dim": [
                  {
                    "size": "1152"
                  }
                ]
              }
            }
          },
          "dtype": {
            "type": "DT_FLOAT"
          }
        }
      },
      {
        "name": "StatefulPartitionedCall/model/ff1fe8d48e3c45a1b58f9cae3ad95deb/StatefulPartitionedCall/StatefulPartitionedCall/sequential/StatefulPartitionedCall/efficientnetb0/StatefulPartitionedCall/block4c_project_conv/StatefulPartitionedCall/Conv2D_bn_offset",
        "op": "Const",
        "attr": {
          "value": {
            "tensor": {
              "dtype": "DT_FLOAT",
              "tensorShape": {
                "dim": [
                  {
                    "size": "80"
                  }
                ]
              }
            }
          },
          "dtype": {
            "type": "DT_FLOAT"
          }
        }
      },
      {
        "name": "StatefulPartitionedCall/model/1e9cafc363934eb1b8c67ca3830c5901/StatefulPartitionedCall/StatefulPartitionedCall/sequential_3/StatefulPartitionedCall/efficientnetb0/StatefulPartitionedCall/block4c_project_conv/StatefulPartitionedCall/Conv2D_weights",
        "op": "Const",
        "attr": {
          "value": {
            "tensor": {
              "dtype": "DT_FLOAT",
              "tensorShape": {
                "dim": [
                  {
                    "size": "1"
                  },
                  {
                    "size": "1"
                  },
                  {
                    "size": "480"
                  },
                  {
                    "size": "80"
                  }
                ]
              }
            }
          },
          "dtype": {
            "type": "DT_FLOAT"
          }
        }
      },
      {
        "name": "StatefulPartitionedCall/model/1e9cafc363934eb1b8c67ca3830c5901/StatefulPartitionedCall/StatefulPartitionedCall/sequential_3/StatefulPartitionedCall/efficientnetb0/StatefulPartitionedCall/block4c_project_conv/StatefulPartitionedCall/Conv2D_bn_offset",
        "op": "Const",
        "attr": {
          "value": {
            "tensor": {
              "dtype": "DT_FLOAT",
              "tensorShape": {
                "dim": [
                  {
                    "size": "80"
                  }
                ]
              }
            }
          },
          "dtype": {
            "type": "DT_FLOAT"
          }
        }
      },
      {
        "name": "StatefulPartitionedCall/model/ff1fe8d48e3c45a1b58f9cae3ad95deb/StatefulPartitionedCall/StatefulPartitionedCall/sequential/StatefulPartitionedCall/efficientnetb0/StatefulPartitionedCall/block5a_expand_conv/StatefulPartitionedCall/Conv2D_weights",
        "op": "Const",
        "attr": {
          "value": {
            "tensor": {
              "dtype": "DT_FLOAT",
              "tensorShape": {
                "dim": [
                  {
                    "size": "1"
                  },
                  {
                    "size": "1"
                  },
                  {
                    "size": "80"
                  },
                  {
                    "size": "480"
                  }
                ]
              }
            }
          },
          "dtype": {
            "type": "DT_FLOAT"
          }
        }
      },
      {
        "name": "StatefulPartitionedCall/model/ff1fe8d48e3c45a1b58f9cae3ad95deb/StatefulPartitionedCall/StatefulPartitionedCall/sequential/StatefulPartitionedCall/efficientnetb0/StatefulPartitionedCall/block5a_expand_conv/StatefulPartitionedCall/Conv2D_bn_offset",
        "op": "Const",
        "attr": {
          "value": {
            "tensor": {
              "dtype": "DT_FLOAT",
              "tensorShape": {
                "dim": [
                  {
                    "size": "480"
                  }
                ]
              }
            }
          },
          "dtype": {
            "type": "DT_FLOAT"
          }
        }
      },
      {
        "name": "StatefulPartitionedCall/model/1e9cafc363934eb1b8c67ca3830c5901/StatefulPartitionedCall/StatefulPartitionedCall/sequential_3/StatefulPartitionedCall/efficientnetb0/StatefulPartitionedCall/block5a_expand_conv/StatefulPartitionedCall/Conv2D_weights",
        "op": "Const",
        "attr": {
          "value": {
            "tensor": {
              "dtype": "DT_FLOAT",
              "tensorShape": {
                "dim": [
                  {
                    "size": "1"
                  },
                  {
                    "size": "1"
                  },
                  {
                    "size": "80"
                  },
                  {
                    "size": "480"
                  }
                ]
              }
            }
          },
          "dtype": {
            "type": "DT_FLOAT"
          }
        }
      },
      {
        "name": "StatefulPartitionedCall/model/1e9cafc363934eb1b8c67ca3830c5901/StatefulPartitionedCall/StatefulPartitionedCall/sequential_3/StatefulPartitionedCall/efficientnetb0/StatefulPartitionedCall/block5a_expand_conv/StatefulPartitionedCall/Conv2D_bn_offset",
        "op": "Const",
        "attr": {
          "value": {
            "tensor": {
              "dtype": "DT_FLOAT",
              "tensorShape": {
                "dim": [
                  {
                    "size": "480"
                  }
                ]
              }
            }
          },
          "dtype": {
            "type": "DT_FLOAT"
          }
        }
      },
      {
        "name": "StatefulPartitionedCall/model/ff1fe8d48e3c45a1b58f9cae3ad95deb/StatefulPartitionedCall/StatefulPartitionedCall/sequential/StatefulPartitionedCall/efficientnetb0/StatefulPartitionedCall/block5a_dwconv/StatefulPartitionedCall/depthwise_weights",
        "op": "Const",
        "attr": {
          "value": {
            "tensor": {
              "dtype": "DT_FLOAT",
              "tensorShape": {
                "dim": [
                  {
                    "size": "5"
                  },
                  {
                    "size": "5"
                  },
                  {
                    "size": "480"
                  },
                  {
                    "size": "1"
                  }
                ]
              }
            }
          },
          "dtype": {
            "type": "DT_FLOAT"
          }
        }
      },
      {
        "name": "StatefulPartitionedCall/model/ff1fe8d48e3c45a1b58f9cae3ad95deb/StatefulPartitionedCall/StatefulPartitionedCall/sequential/StatefulPartitionedCall/efficientnetb0/StatefulPartitionedCall/block5a_dwconv/StatefulPartitionedCall/depthwise_bn_offset",
        "op": "Const",
        "attr": {
          "value": {
            "tensor": {
              "dtype": "DT_FLOAT",
              "tensorShape": {
                "dim": [
                  {
                    "size": "480"
                  }
                ]
              }
            }
          },
          "dtype": {
            "type": "DT_FLOAT"
          }
        }
      },
      {
        "name": "StatefulPartitionedCall/model/ff1fe8d48e3c45a1b58f9cae3ad95deb/StatefulPartitionedCall/StatefulPartitionedCall/sequential/StatefulPartitionedCall/efficientnetb0/StatefulPartitionedCall/block7a_dwconv/StatefulPartitionedCall/depthwise_weights",
        "op": "Const",
        "attr": {
          "value": {
            "tensor": {
              "dtype": "DT_FLOAT",
              "tensorShape": {
                "dim": [
                  {
                    "size": "3"
                  },
                  {
                    "size": "3"
                  },
                  {
                    "size": "1152"
                  },
                  {
                    "size": "1"
                  }
                ]
              }
            }
          },
          "dtype": {
            "type": "DT_FLOAT"
          }
        }
      },
      {
        "name": "StatefulPartitionedCall/model/1e9cafc363934eb1b8c67ca3830c5901/StatefulPartitionedCall/StatefulPartitionedCall/sequential_3/StatefulPartitionedCall/efficientnetb0/StatefulPartitionedCall/block5a_dwconv/StatefulPartitionedCall/depthwise_weights",
        "op": "Const",
        "attr": {
          "value": {
            "tensor": {
              "dtype": "DT_FLOAT",
              "tensorShape": {
                "dim": [
                  {
                    "size": "5"
                  },
                  {
                    "size": "5"
                  },
                  {
                    "size": "480"
                  },
                  {
                    "size": "1"
                  }
                ]
              }
            }
          },
          "dtype": {
            "type": "DT_FLOAT"
          }
        }
      },
      {
        "name": "StatefulPartitionedCall/model/1e9cafc363934eb1b8c67ca3830c5901/StatefulPartitionedCall/StatefulPartitionedCall/sequential_3/StatefulPartitionedCall/efficientnetb0/StatefulPartitionedCall/block5a_dwconv/StatefulPartitionedCall/depthwise_bn_offset",
        "op": "Const",
        "attr": {
          "value": {
            "tensor": {
              "dtype": "DT_FLOAT",
              "tensorShape": {
                "dim": [
                  {
                    "size": "480"
                  }
                ]
              }
            }
          },
          "dtype": {
            "type": "DT_FLOAT"
          }
        }
      },
      {
        "name": "StatefulPartitionedCall/model/ff1fe8d48e3c45a1b58f9cae3ad95deb/StatefulPartitionedCall/StatefulPartitionedCall/sequential/StatefulPartitionedCall/efficientnetb0/StatefulPartitionedCall/block7a_dwconv/StatefulPartitionedCall/depthwise_bn_offset",
        "op": "Const",
        "attr": {
          "value": {
            "tensor": {
              "dtype": "DT_FLOAT",
              "tensorShape": {
                "dim": [
                  {
                    "size": "1152"
                  }
                ]
              }
            }
          },
          "dtype": {
            "type": "DT_FLOAT"
          }
        }
      },
      {
        "name": "StatefulPartitionedCall/model/ff1fe8d48e3c45a1b58f9cae3ad95deb/StatefulPartitionedCall/StatefulPartitionedCall/sequential/StatefulPartitionedCall/efficientnetb0/StatefulPartitionedCall/block5a_project_conv/StatefulPartitionedCall/Conv2D_weights",
        "op": "Const",
        "attr": {
          "value": {
            "tensor": {
              "dtype": "DT_FLOAT",
              "tensorShape": {
                "dim": [
                  {
                    "size": "1"
                  },
                  {
                    "size": "1"
                  },
                  {
                    "size": "480"
                  },
                  {
                    "size": "112"
                  }
                ]
              }
            }
          },
          "dtype": {
            "type": "DT_FLOAT"
          }
        }
      },
      {
        "name": "StatefulPartitionedCall/model/ff1fe8d48e3c45a1b58f9cae3ad95deb/StatefulPartitionedCall/StatefulPartitionedCall/sequential/StatefulPartitionedCall/efficientnetb0/StatefulPartitionedCall/block5a_project_conv/StatefulPartitionedCall/Conv2D_bn_offset",
        "op": "Const",
        "attr": {
          "value": {
            "tensor": {
              "dtype": "DT_FLOAT",
              "tensorShape": {
                "dim": [
                  {
                    "size": "112"
                  }
                ]
              }
            }
          },
          "dtype": {
            "type": "DT_FLOAT"
          }
        }
      },
      {
        "name": "StatefulPartitionedCall/model/1e9cafc363934eb1b8c67ca3830c5901/StatefulPartitionedCall/StatefulPartitionedCall/sequential_3/StatefulPartitionedCall/efficientnetb0/StatefulPartitionedCall/block5a_project_conv/StatefulPartitionedCall/Conv2D_weights",
        "op": "Const",
        "attr": {
          "value": {
            "tensor": {
              "dtype": "DT_FLOAT",
              "tensorShape": {
                "dim": [
                  {
                    "size": "1"
                  },
                  {
                    "size": "1"
                  },
                  {
                    "size": "480"
                  },
                  {
                    "size": "112"
                  }
                ]
              }
            }
          },
          "dtype": {
            "type": "DT_FLOAT"
          }
        }
      },
      {
        "name": "StatefulPartitionedCall/model/1e9cafc363934eb1b8c67ca3830c5901/StatefulPartitionedCall/StatefulPartitionedCall/sequential_3/StatefulPartitionedCall/efficientnetb0/StatefulPartitionedCall/block5a_project_conv/StatefulPartitionedCall/Conv2D_bn_offset",
        "op": "Const",
        "attr": {
          "value": {
            "tensor": {
              "dtype": "DT_FLOAT",
              "tensorShape": {
                "dim": [
                  {
                    "size": "112"
                  }
                ]
              }
            }
          },
          "dtype": {
            "type": "DT_FLOAT"
          }
        }
      },
      {
        "name": "StatefulPartitionedCall/model/ff1fe8d48e3c45a1b58f9cae3ad95deb/StatefulPartitionedCall/StatefulPartitionedCall/sequential/StatefulPartitionedCall/efficientnetb0/StatefulPartitionedCall/block5b_expand_conv/StatefulPartitionedCall/Conv2D_weights",
        "op": "Const",
        "attr": {
          "value": {
            "tensor": {
              "dtype": "DT_FLOAT",
              "tensorShape": {
                "dim": [
                  {
                    "size": "1"
                  },
                  {
                    "size": "1"
                  },
                  {
                    "size": "112"
                  },
                  {
                    "size": "672"
                  }
                ]
              }
            }
          },
          "dtype": {
            "type": "DT_FLOAT"
          }
        }
      },
      {
        "name": "StatefulPartitionedCall/model/ff1fe8d48e3c45a1b58f9cae3ad95deb/StatefulPartitionedCall/StatefulPartitionedCall/sequential/StatefulPartitionedCall/efficientnetb0/StatefulPartitionedCall/block5b_expand_conv/StatefulPartitionedCall/Conv2D_bn_offset",
        "op": "Const",
        "attr": {
          "value": {
            "tensor": {
              "dtype": "DT_FLOAT",
              "tensorShape": {
                "dim": [
                  {
                    "size": "672"
                  }
                ]
              }
            }
          },
          "dtype": {
            "type": "DT_FLOAT"
          }
        }
      },
      {
        "name": "StatefulPartitionedCall/model/1e9cafc363934eb1b8c67ca3830c5901/StatefulPartitionedCall/StatefulPartitionedCall/sequential_3/StatefulPartitionedCall/efficientnetb0/StatefulPartitionedCall/block5b_expand_conv/StatefulPartitionedCall/Conv2D_weights",
        "op": "Const",
        "attr": {
          "value": {
            "tensor": {
              "dtype": "DT_FLOAT",
              "tensorShape": {
                "dim": [
                  {
                    "size": "1"
                  },
                  {
                    "size": "1"
                  },
                  {
                    "size": "112"
                  },
                  {
                    "size": "672"
                  }
                ]
              }
            }
          },
          "dtype": {
            "type": "DT_FLOAT"
          }
        }
      },
      {
        "name": "StatefulPartitionedCall/model/1e9cafc363934eb1b8c67ca3830c5901/StatefulPartitionedCall/StatefulPartitionedCall/sequential_3/StatefulPartitionedCall/efficientnetb0/StatefulPartitionedCall/block5b_expand_conv/StatefulPartitionedCall/Conv2D_bn_offset",
        "op": "Const",
        "attr": {
          "value": {
            "tensor": {
              "dtype": "DT_FLOAT",
              "tensorShape": {
                "dim": [
                  {
                    "size": "672"
                  }
                ]
              }
            }
          },
          "dtype": {
            "type": "DT_FLOAT"
          }
        }
      },
      {
        "name": "StatefulPartitionedCall/model/ff1fe8d48e3c45a1b58f9cae3ad95deb/StatefulPartitionedCall/StatefulPartitionedCall/sequential/StatefulPartitionedCall/efficientnetb0/StatefulPartitionedCall/block5b_dwconv/StatefulPartitionedCall/depthwise_weights",
        "op": "Const",
        "attr": {
          "value": {
            "tensor": {
              "dtype": "DT_FLOAT",
              "tensorShape": {
                "dim": [
                  {
                    "size": "5"
                  },
                  {
                    "size": "5"
                  },
                  {
                    "size": "672"
                  },
                  {
                    "size": "1"
                  }
                ]
              }
            }
          },
          "dtype": {
            "type": "DT_FLOAT"
          }
        }
      },
      {
        "name": "StatefulPartitionedCall/model/ff1fe8d48e3c45a1b58f9cae3ad95deb/StatefulPartitionedCall/StatefulPartitionedCall/sequential/StatefulPartitionedCall/efficientnetb0/StatefulPartitionedCall/block5b_dwconv/StatefulPartitionedCall/depthwise_bn_offset",
        "op": "Const",
        "attr": {
          "value": {
            "tensor": {
              "dtype": "DT_FLOAT",
              "tensorShape": {
                "dim": [
                  {
                    "size": "672"
                  }
                ]
              }
            }
          },
          "dtype": {
            "type": "DT_FLOAT"
          }
        }
      },
      {
        "name": "StatefulPartitionedCall/model/1e9cafc363934eb1b8c67ca3830c5901/StatefulPartitionedCall/StatefulPartitionedCall/sequential_3/StatefulPartitionedCall/efficientnetb0/StatefulPartitionedCall/block5b_dwconv/StatefulPartitionedCall/depthwise_weights",
        "op": "Const",
        "attr": {
          "value": {
            "tensor": {
              "dtype": "DT_FLOAT",
              "tensorShape": {
                "dim": [
                  {
                    "size": "5"
                  },
                  {
                    "size": "5"
                  },
                  {
                    "size": "672"
                  },
                  {
                    "size": "1"
                  }
                ]
              }
            }
          },
          "dtype": {
            "type": "DT_FLOAT"
          }
        }
      },
      {
        "name": "StatefulPartitionedCall/model/1e9cafc363934eb1b8c67ca3830c5901/StatefulPartitionedCall/StatefulPartitionedCall/sequential_3/StatefulPartitionedCall/efficientnetb0/StatefulPartitionedCall/block5b_dwconv/StatefulPartitionedCall/depthwise_bn_offset",
        "op": "Const",
        "attr": {
          "value": {
            "tensor": {
              "dtype": "DT_FLOAT",
              "tensorShape": {
                "dim": [
                  {
                    "size": "672"
                  }
                ]
              }
            }
          },
          "dtype": {
            "type": "DT_FLOAT"
          }
        }
      },
      {
        "name": "StatefulPartitionedCall/model/1e9cafc363934eb1b8c67ca3830c5901/StatefulPartitionedCall/StatefulPartitionedCall/sequential_3/StatefulPartitionedCall/efficientnetb0/StatefulPartitionedCall/top_conv/StatefulPartitionedCall/Conv2D_weights",
        "op": "Const",
        "attr": {
          "value": {
            "tensor": {
              "dtype": "DT_FLOAT",
              "tensorShape": {
                "dim": [
                  {
                    "size": "1"
                  },
                  {
                    "size": "1"
                  },
                  {
                    "size": "320"
                  },
                  {
                    "size": "1280"
                  }
                ]
              }
            }
          },
          "dtype": {
            "type": "DT_FLOAT"
          }
        }
      },
      {
        "name": "StatefulPartitionedCall/model/ff1fe8d48e3c45a1b58f9cae3ad95deb/StatefulPartitionedCall/StatefulPartitionedCall/sequential/StatefulPartitionedCall/efficientnetb0/StatefulPartitionedCall/block5b_project_conv/StatefulPartitionedCall/Conv2D_weights",
        "op": "Const",
        "attr": {
          "value": {
            "tensor": {
              "dtype": "DT_FLOAT",
              "tensorShape": {
                "dim": [
                  {
                    "size": "1"
                  },
                  {
                    "size": "1"
                  },
                  {
                    "size": "672"
                  },
                  {
                    "size": "112"
                  }
                ]
              }
            }
          },
          "dtype": {
            "type": "DT_FLOAT"
          }
        }
      },
      {
        "name": "StatefulPartitionedCall/model/ff1fe8d48e3c45a1b58f9cae3ad95deb/StatefulPartitionedCall/StatefulPartitionedCall/sequential/StatefulPartitionedCall/efficientnetb0/StatefulPartitionedCall/block5b_project_conv/StatefulPartitionedCall/Conv2D_bn_offset",
        "op": "Const",
        "attr": {
          "value": {
            "tensor": {
              "dtype": "DT_FLOAT",
              "tensorShape": {
                "dim": [
                  {
                    "size": "112"
                  }
                ]
              }
            }
          },
          "dtype": {
            "type": "DT_FLOAT"
          }
        }
      },
      {
        "name": "StatefulPartitionedCall/model/1e9cafc363934eb1b8c67ca3830c5901/StatefulPartitionedCall/StatefulPartitionedCall/sequential_3/StatefulPartitionedCall/efficientnetb0/StatefulPartitionedCall/block5b_project_conv/StatefulPartitionedCall/Conv2D_weights",
        "op": "Const",
        "attr": {
          "value": {
            "tensor": {
              "dtype": "DT_FLOAT",
              "tensorShape": {
                "dim": [
                  {
                    "size": "1"
                  },
                  {
                    "size": "1"
                  },
                  {
                    "size": "672"
                  },
                  {
                    "size": "112"
                  }
                ]
              }
            }
          },
          "dtype": {
            "type": "DT_FLOAT"
          }
        }
      },
      {
        "name": "StatefulPartitionedCall/model/1e9cafc363934eb1b8c67ca3830c5901/StatefulPartitionedCall/StatefulPartitionedCall/sequential_3/StatefulPartitionedCall/efficientnetb0/StatefulPartitionedCall/block5b_project_conv/StatefulPartitionedCall/Conv2D_bn_offset",
        "op": "Const",
        "attr": {
          "value": {
            "tensor": {
              "dtype": "DT_FLOAT",
              "tensorShape": {
                "dim": [
                  {
                    "size": "112"
                  }
                ]
              }
            }
          },
          "dtype": {
            "type": "DT_FLOAT"
          }
        }
      },
      {
        "name": "StatefulPartitionedCall/model/ff1fe8d48e3c45a1b58f9cae3ad95deb/StatefulPartitionedCall/StatefulPartitionedCall/sequential/StatefulPartitionedCall/efficientnetb0/StatefulPartitionedCall/block5c_expand_conv/StatefulPartitionedCall/Conv2D_weights",
        "op": "Const",
        "attr": {
          "value": {
            "tensor": {
              "dtype": "DT_FLOAT",
              "tensorShape": {
                "dim": [
                  {
                    "size": "1"
                  },
                  {
                    "size": "1"
                  },
                  {
                    "size": "112"
                  },
                  {
                    "size": "672"
                  }
                ]
              }
            }
          },
          "dtype": {
            "type": "DT_FLOAT"
          }
        }
      },
      {
        "name": "StatefulPartitionedCall/model/ff1fe8d48e3c45a1b58f9cae3ad95deb/StatefulPartitionedCall/StatefulPartitionedCall/sequential/StatefulPartitionedCall/efficientnetb0/StatefulPartitionedCall/block5c_expand_conv/StatefulPartitionedCall/Conv2D_bn_offset",
        "op": "Const",
        "attr": {
          "value": {
            "tensor": {
              "dtype": "DT_FLOAT",
              "tensorShape": {
                "dim": [
                  {
                    "size": "672"
                  }
                ]
              }
            }
          },
          "dtype": {
            "type": "DT_FLOAT"
          }
        }
      },
      {
        "name": "StatefulPartitionedCall/model/1e9cafc363934eb1b8c67ca3830c5901/StatefulPartitionedCall/StatefulPartitionedCall/sequential_3/StatefulPartitionedCall/efficientnetb0/StatefulPartitionedCall/block5c_expand_conv/StatefulPartitionedCall/Conv2D_weights",
        "op": "Const",
        "attr": {
          "value": {
            "tensor": {
              "dtype": "DT_FLOAT",
              "tensorShape": {
                "dim": [
                  {
                    "size": "1"
                  },
                  {
                    "size": "1"
                  },
                  {
                    "size": "112"
                  },
                  {
                    "size": "672"
                  }
                ]
              }
            }
          },
          "dtype": {
            "type": "DT_FLOAT"
          }
        }
      },
      {
        "name": "StatefulPartitionedCall/model/1e9cafc363934eb1b8c67ca3830c5901/StatefulPartitionedCall/StatefulPartitionedCall/sequential_3/StatefulPartitionedCall/efficientnetb0/StatefulPartitionedCall/block5c_expand_conv/StatefulPartitionedCall/Conv2D_bn_offset",
        "op": "Const",
        "attr": {
          "value": {
            "tensor": {
              "dtype": "DT_FLOAT",
              "tensorShape": {
                "dim": [
                  {
                    "size": "672"
                  }
                ]
              }
            }
          },
          "dtype": {
            "type": "DT_FLOAT"
          }
        }
      },
      {
        "name": "StatefulPartitionedCall/model/ff1fe8d48e3c45a1b58f9cae3ad95deb/StatefulPartitionedCall/StatefulPartitionedCall/sequential/StatefulPartitionedCall/efficientnetb0/StatefulPartitionedCall/block5c_dwconv/StatefulPartitionedCall/depthwise_weights",
        "op": "Const",
        "attr": {
          "value": {
            "tensor": {
              "dtype": "DT_FLOAT",
              "tensorShape": {
                "dim": [
                  {
                    "size": "5"
                  },
                  {
                    "size": "5"
                  },
                  {
                    "size": "672"
                  },
                  {
                    "size": "1"
                  }
                ]
              }
            }
          },
          "dtype": {
            "type": "DT_FLOAT"
          }
        }
      },
      {
        "name": "StatefulPartitionedCall/model/ff1fe8d48e3c45a1b58f9cae3ad95deb/StatefulPartitionedCall/StatefulPartitionedCall/sequential/StatefulPartitionedCall/efficientnetb0/StatefulPartitionedCall/block5c_dwconv/StatefulPartitionedCall/depthwise_bn_offset",
        "op": "Const",
        "attr": {
          "value": {
            "tensor": {
              "dtype": "DT_FLOAT",
              "tensorShape": {
                "dim": [
                  {
                    "size": "672"
                  }
                ]
              }
            }
          },
          "dtype": {
            "type": "DT_FLOAT"
          }
        }
      },
      {
        "name": "StatefulPartitionedCall/model/1e9cafc363934eb1b8c67ca3830c5901/StatefulPartitionedCall/StatefulPartitionedCall/sequential_3/StatefulPartitionedCall/efficientnetb0/StatefulPartitionedCall/block5c_dwconv/StatefulPartitionedCall/depthwise_weights",
        "op": "Const",
        "attr": {
          "value": {
            "tensor": {
              "dtype": "DT_FLOAT",
              "tensorShape": {
                "dim": [
                  {
                    "size": "5"
                  },
                  {
                    "size": "5"
                  },
                  {
                    "size": "672"
                  },
                  {
                    "size": "1"
                  }
                ]
              }
            }
          },
          "dtype": {
            "type": "DT_FLOAT"
          }
        }
      },
      {
        "name": "StatefulPartitionedCall/model/1e9cafc363934eb1b8c67ca3830c5901/StatefulPartitionedCall/StatefulPartitionedCall/sequential_3/StatefulPartitionedCall/efficientnetb0/StatefulPartitionedCall/block5c_dwconv/StatefulPartitionedCall/depthwise_bn_offset",
        "op": "Const",
        "attr": {
          "value": {
            "tensor": {
              "dtype": "DT_FLOAT",
              "tensorShape": {
                "dim": [
                  {
                    "size": "672"
                  }
                ]
              }
            }
          },
          "dtype": {
            "type": "DT_FLOAT"
          }
        }
      },
      {
        "name": "StatefulPartitionedCall/model/1e9cafc363934eb1b8c67ca3830c5901/StatefulPartitionedCall/StatefulPartitionedCall/sequential_3/StatefulPartitionedCall/efficientnetb0/StatefulPartitionedCall/block7a_dwconv/StatefulPartitionedCall/depthwise_weights",
        "op": "Const",
        "attr": {
          "value": {
            "tensor": {
              "dtype": "DT_FLOAT",
              "tensorShape": {
                "dim": [
                  {
                    "size": "3"
                  },
                  {
                    "size": "3"
                  },
                  {
                    "size": "1152"
                  },
                  {
                    "size": "1"
                  }
                ]
              }
            }
          },
          "dtype": {
            "type": "DT_FLOAT"
          }
        }
      },
      {
        "name": "StatefulPartitionedCall/model/ff1fe8d48e3c45a1b58f9cae3ad95deb/StatefulPartitionedCall/StatefulPartitionedCall/sequential/StatefulPartitionedCall/efficientnetb0/StatefulPartitionedCall/block5c_project_conv/StatefulPartitionedCall/Conv2D_weights",
        "op": "Const",
        "attr": {
          "value": {
            "tensor": {
              "dtype": "DT_FLOAT",
              "tensorShape": {
                "dim": [
                  {
                    "size": "1"
                  },
                  {
                    "size": "1"
                  },
                  {
                    "size": "672"
                  },
                  {
                    "size": "112"
                  }
                ]
              }
            }
          },
          "dtype": {
            "type": "DT_FLOAT"
          }
        }
      },
      {
        "name": "StatefulPartitionedCall/model/ff1fe8d48e3c45a1b58f9cae3ad95deb/StatefulPartitionedCall/StatefulPartitionedCall/sequential/StatefulPartitionedCall/efficientnetb0/StatefulPartitionedCall/block5c_project_conv/StatefulPartitionedCall/Conv2D_bn_offset",
        "op": "Const",
        "attr": {
          "value": {
            "tensor": {
              "dtype": "DT_FLOAT",
              "tensorShape": {
                "dim": [
                  {
                    "size": "112"
                  }
                ]
              }
            }
          },
          "dtype": {
            "type": "DT_FLOAT"
          }
        }
      },
      {
        "name": "StatefulPartitionedCall/model/1e9cafc363934eb1b8c67ca3830c5901/StatefulPartitionedCall/StatefulPartitionedCall/sequential_3/StatefulPartitionedCall/efficientnetb0/StatefulPartitionedCall/block5c_project_conv/StatefulPartitionedCall/Conv2D_weights",
        "op": "Const",
        "attr": {
          "value": {
            "tensor": {
              "dtype": "DT_FLOAT",
              "tensorShape": {
                "dim": [
                  {
                    "size": "1"
                  },
                  {
                    "size": "1"
                  },
                  {
                    "size": "672"
                  },
                  {
                    "size": "112"
                  }
                ]
              }
            }
          },
          "dtype": {
            "type": "DT_FLOAT"
          }
        }
      },
      {
        "name": "StatefulPartitionedCall/model/1e9cafc363934eb1b8c67ca3830c5901/StatefulPartitionedCall/StatefulPartitionedCall/sequential_3/StatefulPartitionedCall/efficientnetb0/StatefulPartitionedCall/block7a_dwconv/StatefulPartitionedCall/depthwise_bn_offset",
        "op": "Const",
        "attr": {
          "value": {
            "tensor": {
              "dtype": "DT_FLOAT",
              "tensorShape": {
                "dim": [
                  {
                    "size": "1152"
                  }
                ]
              }
            }
          },
          "dtype": {
            "type": "DT_FLOAT"
          }
        }
      },
      {
        "name": "StatefulPartitionedCall/model/1e9cafc363934eb1b8c67ca3830c5901/StatefulPartitionedCall/StatefulPartitionedCall/sequential_3/StatefulPartitionedCall/efficientnetb0/StatefulPartitionedCall/block5c_project_conv/StatefulPartitionedCall/Conv2D_bn_offset",
        "op": "Const",
        "attr": {
          "value": {
            "tensor": {
              "dtype": "DT_FLOAT",
              "tensorShape": {
                "dim": [
                  {
                    "size": "112"
                  }
                ]
              }
            }
          },
          "dtype": {
            "type": "DT_FLOAT"
          }
        }
      },
      {
        "name": "StatefulPartitionedCall/model/ff1fe8d48e3c45a1b58f9cae3ad95deb/StatefulPartitionedCall/StatefulPartitionedCall/sequential/StatefulPartitionedCall/efficientnetb0/StatefulPartitionedCall/block6a_expand_conv/StatefulPartitionedCall/Conv2D_weights",
        "op": "Const",
        "attr": {
          "value": {
            "tensor": {
              "dtype": "DT_FLOAT",
              "tensorShape": {
                "dim": [
                  {
                    "size": "1"
                  },
                  {
                    "size": "1"
                  },
                  {
                    "size": "112"
                  },
                  {
                    "size": "672"
                  }
                ]
              }
            }
          },
          "dtype": {
            "type": "DT_FLOAT"
          }
        }
      },
      {
        "name": "StatefulPartitionedCall/model/ff1fe8d48e3c45a1b58f9cae3ad95deb/StatefulPartitionedCall/StatefulPartitionedCall/sequential/StatefulPartitionedCall/efficientnetb0/StatefulPartitionedCall/block6a_expand_conv/StatefulPartitionedCall/Conv2D_bn_offset",
        "op": "Const",
        "attr": {
          "value": {
            "tensor": {
              "dtype": "DT_FLOAT",
              "tensorShape": {
                "dim": [
                  {
                    "size": "672"
                  }
                ]
              }
            }
          },
          "dtype": {
            "type": "DT_FLOAT"
          }
        }
      },
      {
        "name": "StatefulPartitionedCall/model/1e9cafc363934eb1b8c67ca3830c5901/StatefulPartitionedCall/StatefulPartitionedCall/sequential_3/StatefulPartitionedCall/efficientnetb0/StatefulPartitionedCall/block6a_expand_conv/StatefulPartitionedCall/Conv2D_weights",
        "op": "Const",
        "attr": {
          "value": {
            "tensor": {
              "dtype": "DT_FLOAT",
              "tensorShape": {
                "dim": [
                  {
                    "size": "1"
                  },
                  {
                    "size": "1"
                  },
                  {
                    "size": "112"
                  },
                  {
                    "size": "672"
                  }
                ]
              }
            }
          },
          "dtype": {
            "type": "DT_FLOAT"
          }
        }
      },
      {
        "name": "StatefulPartitionedCall/model/1e9cafc363934eb1b8c67ca3830c5901/StatefulPartitionedCall/StatefulPartitionedCall/sequential_3/StatefulPartitionedCall/efficientnetb0/StatefulPartitionedCall/block6a_expand_conv/StatefulPartitionedCall/Conv2D_bn_offset",
        "op": "Const",
        "attr": {
          "value": {
            "tensor": {
              "dtype": "DT_FLOAT",
              "tensorShape": {
                "dim": [
                  {
                    "size": "672"
                  }
                ]
              }
            }
          },
          "dtype": {
            "type": "DT_FLOAT"
          }
        }
      },
      {
        "name": "StatefulPartitionedCall/model/ff1fe8d48e3c45a1b58f9cae3ad95deb/StatefulPartitionedCall/StatefulPartitionedCall/sequential/StatefulPartitionedCall/efficientnetb0/StatefulPartitionedCall/block6a_dwconv/StatefulPartitionedCall/depthwise_weights",
        "op": "Const",
        "attr": {
          "value": {
            "tensor": {
              "dtype": "DT_FLOAT",
              "tensorShape": {
                "dim": [
                  {
                    "size": "5"
                  },
                  {
                    "size": "5"
                  },
                  {
                    "size": "672"
                  },
                  {
                    "size": "1"
                  }
                ]
              }
            }
          },
          "dtype": {
            "type": "DT_FLOAT"
          }
        }
      },
      {
        "name": "StatefulPartitionedCall/model/ff1fe8d48e3c45a1b58f9cae3ad95deb/StatefulPartitionedCall/StatefulPartitionedCall/sequential/StatefulPartitionedCall/efficientnetb0/StatefulPartitionedCall/block6a_dwconv/StatefulPartitionedCall/depthwise_bn_offset",
        "op": "Const",
        "attr": {
          "value": {
            "tensor": {
              "dtype": "DT_FLOAT",
              "tensorShape": {
                "dim": [
                  {
                    "size": "672"
                  }
                ]
              }
            }
          },
          "dtype": {
            "type": "DT_FLOAT"
          }
        }
      },
      {
        "name": "StatefulPartitionedCall/model/1e9cafc363934eb1b8c67ca3830c5901/StatefulPartitionedCall/StatefulPartitionedCall/sequential_3/StatefulPartitionedCall/efficientnetb0/StatefulPartitionedCall/block6a_dwconv/StatefulPartitionedCall/depthwise_weights",
        "op": "Const",
        "attr": {
          "value": {
            "tensor": {
              "dtype": "DT_FLOAT",
              "tensorShape": {
                "dim": [
                  {
                    "size": "5"
                  },
                  {
                    "size": "5"
                  },
                  {
                    "size": "672"
                  },
                  {
                    "size": "1"
                  }
                ]
              }
            }
          },
          "dtype": {
            "type": "DT_FLOAT"
          }
        }
      },
      {
        "name": "StatefulPartitionedCall/model/1e9cafc363934eb1b8c67ca3830c5901/StatefulPartitionedCall/StatefulPartitionedCall/sequential_3/StatefulPartitionedCall/efficientnetb0/StatefulPartitionedCall/block6a_dwconv/StatefulPartitionedCall/depthwise_bn_offset",
        "op": "Const",
        "attr": {
          "value": {
            "tensor": {
              "dtype": "DT_FLOAT",
              "tensorShape": {
                "dim": [
                  {
                    "size": "672"
                  }
                ]
              }
            }
          },
          "dtype": {
            "type": "DT_FLOAT"
          }
        }
      },
      {
        "name": "StatefulPartitionedCall/model/ff1fe8d48e3c45a1b58f9cae3ad95deb/StatefulPartitionedCall/StatefulPartitionedCall/sequential/StatefulPartitionedCall/efficientnetb0/StatefulPartitionedCall/block6a_project_conv/StatefulPartitionedCall/Conv2D_weights",
        "op": "Const",
        "attr": {
          "value": {
            "tensor": {
              "dtype": "DT_FLOAT",
              "tensorShape": {
                "dim": [
                  {
                    "size": "1"
                  },
                  {
                    "size": "1"
                  },
                  {
                    "size": "672"
                  },
                  {
                    "size": "192"
                  }
                ]
              }
            }
          },
          "dtype": {
            "type": "DT_FLOAT"
          }
        }
      },
      {
        "name": "StatefulPartitionedCall/model/ff1fe8d48e3c45a1b58f9cae3ad95deb/StatefulPartitionedCall/StatefulPartitionedCall/sequential/StatefulPartitionedCall/efficientnetb0/StatefulPartitionedCall/block6a_project_conv/StatefulPartitionedCall/Conv2D_bn_offset",
        "op": "Const",
        "attr": {
          "value": {
            "tensor": {
              "dtype": "DT_FLOAT",
              "tensorShape": {
                "dim": [
                  {
                    "size": "192"
                  }
                ]
              }
            }
          },
          "dtype": {
            "type": "DT_FLOAT"
          }
        }
      },
      {
        "name": "StatefulPartitionedCall/model/1e9cafc363934eb1b8c67ca3830c5901/StatefulPartitionedCall/StatefulPartitionedCall/sequential_3/StatefulPartitionedCall/efficientnetb0/StatefulPartitionedCall/block6a_project_conv/StatefulPartitionedCall/Conv2D_weights",
        "op": "Const",
        "attr": {
          "value": {
            "tensor": {
              "dtype": "DT_FLOAT",
              "tensorShape": {
                "dim": [
                  {
                    "size": "1"
                  },
                  {
                    "size": "1"
                  },
                  {
                    "size": "672"
                  },
                  {
                    "size": "192"
                  }
                ]
              }
            }
          },
          "dtype": {
            "type": "DT_FLOAT"
          }
        }
      },
      {
        "name": "StatefulPartitionedCall/model/1e9cafc363934eb1b8c67ca3830c5901/StatefulPartitionedCall/StatefulPartitionedCall/sequential_3/StatefulPartitionedCall/efficientnetb0/StatefulPartitionedCall/block6a_project_conv/StatefulPartitionedCall/Conv2D_bn_offset",
        "op": "Const",
        "attr": {
          "value": {
            "tensor": {
              "dtype": "DT_FLOAT",
              "tensorShape": {
                "dim": [
                  {
                    "size": "192"
                  }
                ]
              }
            }
          },
          "dtype": {
            "type": "DT_FLOAT"
          }
        }
      },
      {
        "name": "StatefulPartitionedCall/model/ff1fe8d48e3c45a1b58f9cae3ad95deb/StatefulPartitionedCall/StatefulPartitionedCall/sequential/StatefulPartitionedCall/efficientnetb0/StatefulPartitionedCall/block6b_expand_conv/StatefulPartitionedCall/Conv2D_weights",
        "op": "Const",
        "attr": {
          "value": {
            "tensor": {
              "dtype": "DT_FLOAT",
              "tensorShape": {
                "dim": [
                  {
                    "size": "1"
                  },
                  {
                    "size": "1"
                  },
                  {
                    "size": "192"
                  },
                  {
                    "size": "1152"
                  }
                ]
              }
            }
          },
          "dtype": {
            "type": "DT_FLOAT"
          }
        }
      },
      {
        "name": "StatefulPartitionedCall/model/1e9cafc363934eb1b8c67ca3830c5901/StatefulPartitionedCall/StatefulPartitionedCall/sequential_3/StatefulPartitionedCall/efficientnetb0/StatefulPartitionedCall/top_conv/StatefulPartitionedCall/Conv2D_bn_offset",
        "op": "Const",
        "attr": {
          "value": {
            "tensor": {
              "dtype": "DT_FLOAT",
              "tensorShape": {
                "dim": [
                  {
                    "size": "1280"
                  }
                ]
              }
            }
          },
          "dtype": {
            "type": "DT_FLOAT"
          }
        }
      },
      {
        "name": "StatefulPartitionedCall/model/ff1fe8d48e3c45a1b58f9cae3ad95deb/StatefulPartitionedCall/StatefulPartitionedCall/sequential/StatefulPartitionedCall/efficientnetb0/StatefulPartitionedCall/block6b_expand_conv/StatefulPartitionedCall/Conv2D_bn_offset",
        "op": "Const",
        "attr": {
          "value": {
            "tensor": {
              "dtype": "DT_FLOAT",
              "tensorShape": {
                "dim": [
                  {
                    "size": "1152"
                  }
                ]
              }
            }
          },
          "dtype": {
            "type": "DT_FLOAT"
          }
        }
      },
      {
        "name": "StatefulPartitionedCall/model/1e9cafc363934eb1b8c67ca3830c5901/StatefulPartitionedCall/StatefulPartitionedCall/sequential_3/StatefulPartitionedCall/efficientnetb0/StatefulPartitionedCall/block6b_expand_conv/StatefulPartitionedCall/Conv2D_weights",
        "op": "Const",
        "attr": {
          "value": {
            "tensor": {
              "dtype": "DT_FLOAT",
              "tensorShape": {
                "dim": [
                  {
                    "size": "1"
                  },
                  {
                    "size": "1"
                  },
                  {
                    "size": "192"
                  },
                  {
                    "size": "1152"
                  }
                ]
              }
            }
          },
          "dtype": {
            "type": "DT_FLOAT"
          }
        }
      },
      {
        "name": "StatefulPartitionedCall/model/1e9cafc363934eb1b8c67ca3830c5901/StatefulPartitionedCall/StatefulPartitionedCall/sequential_3/StatefulPartitionedCall/efficientnetb0/StatefulPartitionedCall/block6b_expand_conv/StatefulPartitionedCall/Conv2D_bn_offset",
        "op": "Const",
        "attr": {
          "value": {
            "tensor": {
              "dtype": "DT_FLOAT",
              "tensorShape": {
                "dim": [
                  {
                    "size": "1152"
                  }
                ]
              }
            }
          },
          "dtype": {
            "type": "DT_FLOAT"
          }
        }
      },
      {
        "name": "StatefulPartitionedCall/model/ff1fe8d48e3c45a1b58f9cae3ad95deb/StatefulPartitionedCall/StatefulPartitionedCall/sequential/StatefulPartitionedCall/efficientnetb0/StatefulPartitionedCall/block6b_dwconv/StatefulPartitionedCall/depthwise_weights",
        "op": "Const",
        "attr": {
          "value": {
            "tensor": {
              "dtype": "DT_FLOAT",
              "tensorShape": {
                "dim": [
                  {
                    "size": "5"
                  },
                  {
                    "size": "5"
                  },
                  {
                    "size": "1152"
                  },
                  {
                    "size": "1"
                  }
                ]
              }
            }
          },
          "dtype": {
            "type": "DT_FLOAT"
          }
        }
      },
      {
        "name": "StatefulPartitionedCall/model/ff1fe8d48e3c45a1b58f9cae3ad95deb/StatefulPartitionedCall/StatefulPartitionedCall/sequential/StatefulPartitionedCall/efficientnetb0/StatefulPartitionedCall/block6b_dwconv/StatefulPartitionedCall/depthwise_bn_offset",
        "op": "Const",
        "attr": {
          "value": {
            "tensor": {
              "dtype": "DT_FLOAT",
              "tensorShape": {
                "dim": [
                  {
                    "size": "1152"
                  }
                ]
              }
            }
          },
          "dtype": {
            "type": "DT_FLOAT"
          }
        }
      },
      {
        "name": "StatefulPartitionedCall/model/1e9cafc363934eb1b8c67ca3830c5901/StatefulPartitionedCall/StatefulPartitionedCall/sequential_3/StatefulPartitionedCall/efficientnetb0/StatefulPartitionedCall/block6b_dwconv/StatefulPartitionedCall/depthwise_weights",
        "op": "Const",
        "attr": {
          "value": {
            "tensor": {
              "dtype": "DT_FLOAT",
              "tensorShape": {
                "dim": [
                  {
                    "size": "5"
                  },
                  {
                    "size": "5"
                  },
                  {
                    "size": "1152"
                  },
                  {
                    "size": "1"
                  }
                ]
              }
            }
          },
          "dtype": {
            "type": "DT_FLOAT"
          }
        }
      },
      {
        "name": "StatefulPartitionedCall/model/1e9cafc363934eb1b8c67ca3830c5901/StatefulPartitionedCall/StatefulPartitionedCall/sequential_3/StatefulPartitionedCall/efficientnetb0/StatefulPartitionedCall/block6b_dwconv/StatefulPartitionedCall/depthwise_bn_offset",
        "op": "Const",
        "attr": {
          "value": {
            "tensor": {
              "dtype": "DT_FLOAT",
              "tensorShape": {
                "dim": [
                  {
                    "size": "1152"
                  }
                ]
              }
            }
          },
          "dtype": {
            "type": "DT_FLOAT"
          }
        }
      },
      {
        "name": "StatefulPartitionedCall/model/ff1fe8d48e3c45a1b58f9cae3ad95deb/StatefulPartitionedCall/StatefulPartitionedCall/sequential/StatefulPartitionedCall/efficientnetb0/StatefulPartitionedCall/block6b_project_conv/StatefulPartitionedCall/Conv2D_weights",
        "op": "Const",
        "attr": {
          "value": {
            "tensor": {
              "dtype": "DT_FLOAT",
              "tensorShape": {
                "dim": [
                  {
                    "size": "1"
                  },
                  {
                    "size": "1"
                  },
                  {
                    "size": "1152"
                  },
                  {
                    "size": "192"
                  }
                ]
              }
            }
          },
          "dtype": {
            "type": "DT_FLOAT"
          }
        }
      },
      {
        "name": "StatefulPartitionedCall/model/ff1fe8d48e3c45a1b58f9cae3ad95deb/StatefulPartitionedCall/StatefulPartitionedCall/sequential/StatefulPartitionedCall/efficientnetb0/StatefulPartitionedCall/block6b_project_conv/StatefulPartitionedCall/Conv2D_bn_offset",
        "op": "Const",
        "attr": {
          "value": {
            "tensor": {
              "dtype": "DT_FLOAT",
              "tensorShape": {
                "dim": [
                  {
                    "size": "192"
                  }
                ]
              }
            }
          },
          "dtype": {
            "type": "DT_FLOAT"
          }
        }
      },
      {
        "name": "StatefulPartitionedCall/model/1e9cafc363934eb1b8c67ca3830c5901/StatefulPartitionedCall/StatefulPartitionedCall/sequential_3/StatefulPartitionedCall/efficientnetb0/StatefulPartitionedCall/block6b_project_conv/StatefulPartitionedCall/Conv2D_weights",
        "op": "Const",
        "attr": {
          "value": {
            "tensor": {
              "dtype": "DT_FLOAT",
              "tensorShape": {
                "dim": [
                  {
                    "size": "1"
                  },
                  {
                    "size": "1"
                  },
                  {
                    "size": "1152"
                  },
                  {
                    "size": "192"
                  }
                ]
              }
            }
          },
          "dtype": {
            "type": "DT_FLOAT"
          }
        }
      },
      {
        "name": "StatefulPartitionedCall/model/1e9cafc363934eb1b8c67ca3830c5901/StatefulPartitionedCall/StatefulPartitionedCall/sequential_3/StatefulPartitionedCall/efficientnetb0/StatefulPartitionedCall/block6b_project_conv/StatefulPartitionedCall/Conv2D_bn_offset",
        "op": "Const",
        "attr": {
          "value": {
            "tensor": {
              "dtype": "DT_FLOAT",
              "tensorShape": {
                "dim": [
                  {
                    "size": "192"
                  }
                ]
              }
            }
          },
          "dtype": {
            "type": "DT_FLOAT"
          }
        }
      },
      {
        "name": "StatefulPartitionedCall/model/ff1fe8d48e3c45a1b58f9cae3ad95deb/StatefulPartitionedCall/StatefulPartitionedCall/sequential/StatefulPartitionedCall/efficientnetb0/StatefulPartitionedCall/block6c_expand_conv/StatefulPartitionedCall/Conv2D_weights",
        "op": "Const",
        "attr": {
          "value": {
            "tensor": {
              "dtype": "DT_FLOAT",
              "tensorShape": {
                "dim": [
                  {
                    "size": "1"
                  },
                  {
                    "size": "1"
                  },
                  {
                    "size": "192"
                  },
                  {
                    "size": "1152"
                  }
                ]
              }
            }
          },
          "dtype": {
            "type": "DT_FLOAT"
          }
        }
      },
      {
        "name": "StatefulPartitionedCall/model/ff1fe8d48e3c45a1b58f9cae3ad95deb/StatefulPartitionedCall/StatefulPartitionedCall/sequential/StatefulPartitionedCall/efficientnetb0/StatefulPartitionedCall/block7a_project_conv/StatefulPartitionedCall/Conv2D_weights",
        "op": "Const",
        "attr": {
          "value": {
            "tensor": {
              "dtype": "DT_FLOAT",
              "tensorShape": {
                "dim": [
                  {
                    "size": "1"
                  },
                  {
                    "size": "1"
                  },
                  {
                    "size": "1152"
                  },
                  {
                    "size": "320"
                  }
                ]
              }
            }
          },
          "dtype": {
            "type": "DT_FLOAT"
          }
        }
      },
      {
        "name": "StatefulPartitionedCall/model/ff1fe8d48e3c45a1b58f9cae3ad95deb/StatefulPartitionedCall/StatefulPartitionedCall/sequential/StatefulPartitionedCall/efficientnetb0/StatefulPartitionedCall/block6c_expand_conv/StatefulPartitionedCall/Conv2D_bn_offset",
        "op": "Const",
        "attr": {
          "value": {
            "tensor": {
              "dtype": "DT_FLOAT",
              "tensorShape": {
                "dim": [
                  {
                    "size": "1152"
                  }
                ]
              }
            }
          },
          "dtype": {
            "type": "DT_FLOAT"
          }
        }
      },
      {
        "name": "StatefulPartitionedCall/model/1e9cafc363934eb1b8c67ca3830c5901/StatefulPartitionedCall/StatefulPartitionedCall/sequential_3/StatefulPartitionedCall/efficientnetb0/StatefulPartitionedCall/block6c_expand_conv/StatefulPartitionedCall/Conv2D_weights",
        "op": "Const",
        "attr": {
          "value": {
            "tensor": {
              "dtype": "DT_FLOAT",
              "tensorShape": {
                "dim": [
                  {
                    "size": "1"
                  },
                  {
                    "size": "1"
                  },
                  {
                    "size": "192"
                  },
                  {
                    "size": "1152"
                  }
                ]
              }
            }
          },
          "dtype": {
            "type": "DT_FLOAT"
          }
        }
      },
      {
        "name": "StatefulPartitionedCall/model/1e9cafc363934eb1b8c67ca3830c5901/StatefulPartitionedCall/StatefulPartitionedCall/sequential_3/StatefulPartitionedCall/efficientnetb0/StatefulPartitionedCall/block6c_expand_conv/StatefulPartitionedCall/Conv2D_bn_offset",
        "op": "Const",
        "attr": {
          "value": {
            "tensor": {
              "dtype": "DT_FLOAT",
              "tensorShape": {
                "dim": [
                  {
                    "size": "1152"
                  }
                ]
              }
            }
          },
          "dtype": {
            "type": "DT_FLOAT"
          }
        }
      },
      {
        "name": "StatefulPartitionedCall/model/ff1fe8d48e3c45a1b58f9cae3ad95deb/StatefulPartitionedCall/StatefulPartitionedCall/sequential/StatefulPartitionedCall/efficientnetb0/StatefulPartitionedCall/block6c_dwconv/StatefulPartitionedCall/depthwise_weights",
        "op": "Const",
        "attr": {
          "value": {
            "tensor": {
              "dtype": "DT_FLOAT",
              "tensorShape": {
                "dim": [
                  {
                    "size": "5"
                  },
                  {
                    "size": "5"
                  },
                  {
                    "size": "1152"
                  },
                  {
                    "size": "1"
                  }
                ]
              }
            }
          },
          "dtype": {
            "type": "DT_FLOAT"
          }
        }
      },
      {
        "name": "StatefulPartitionedCall/model/ff1fe8d48e3c45a1b58f9cae3ad95deb/StatefulPartitionedCall/StatefulPartitionedCall/sequential/StatefulPartitionedCall/efficientnetb0/StatefulPartitionedCall/block6c_dwconv/StatefulPartitionedCall/depthwise_bn_offset",
        "op": "Const",
        "attr": {
          "value": {
            "tensor": {
              "dtype": "DT_FLOAT",
              "tensorShape": {
                "dim": [
                  {
                    "size": "1152"
                  }
                ]
              }
            }
          },
          "dtype": {
            "type": "DT_FLOAT"
          }
        }
      },
      {
        "name": "StatefulPartitionedCall/model/ff1fe8d48e3c45a1b58f9cae3ad95deb/StatefulPartitionedCall/StatefulPartitionedCall/sequential/StatefulPartitionedCall/efficientnetb0/StatefulPartitionedCall/block7a_project_conv/StatefulPartitionedCall/Conv2D_bn_offset",
        "op": "Const",
        "attr": {
          "value": {
            "tensor": {
              "dtype": "DT_FLOAT",
              "tensorShape": {
                "dim": [
                  {
                    "size": "320"
                  }
                ]
              }
            }
          },
          "dtype": {
            "type": "DT_FLOAT"
          }
        }
      },
      {
        "name": "StatefulPartitionedCall/model/1e9cafc363934eb1b8c67ca3830c5901/StatefulPartitionedCall/StatefulPartitionedCall/sequential_3/StatefulPartitionedCall/efficientnetb0/StatefulPartitionedCall/block6c_dwconv/StatefulPartitionedCall/depthwise_weights",
        "op": "Const",
        "attr": {
          "value": {
            "tensor": {
              "dtype": "DT_FLOAT",
              "tensorShape": {
                "dim": [
                  {
                    "size": "5"
                  },
                  {
                    "size": "5"
                  },
                  {
                    "size": "1152"
                  },
                  {
                    "size": "1"
                  }
                ]
              }
            }
          },
          "dtype": {
            "type": "DT_FLOAT"
          }
        }
      },
      {
        "name": "StatefulPartitionedCall/model/1e9cafc363934eb1b8c67ca3830c5901/StatefulPartitionedCall/StatefulPartitionedCall/sequential_3/StatefulPartitionedCall/efficientnetb0/StatefulPartitionedCall/block6c_dwconv/StatefulPartitionedCall/depthwise_bn_offset",
        "op": "Const",
        "attr": {
          "value": {
            "tensor": {
              "dtype": "DT_FLOAT",
              "tensorShape": {
                "dim": [
                  {
                    "size": "1152"
                  }
                ]
              }
            }
          },
          "dtype": {
            "type": "DT_FLOAT"
          }
        }
      },
      {
        "name": "StatefulPartitionedCall/model/1e9cafc363934eb1b8c67ca3830c5901/StatefulPartitionedCall/StatefulPartitionedCall/sequential_3/StatefulPartitionedCall/efficientnetb0/StatefulPartitionedCall/block7a_project_conv/StatefulPartitionedCall/Conv2D_weights",
        "op": "Const",
        "attr": {
          "value": {
            "tensor": {
              "dtype": "DT_FLOAT",
              "tensorShape": {
                "dim": [
                  {
                    "size": "1"
                  },
                  {
                    "size": "1"
                  },
                  {
                    "size": "1152"
                  },
                  {
                    "size": "320"
                  }
                ]
              }
            }
          },
          "dtype": {
            "type": "DT_FLOAT"
          }
        }
      },
      {
        "name": "StatefulPartitionedCall/model/ff1fe8d48e3c45a1b58f9cae3ad95deb/StatefulPartitionedCall/StatefulPartitionedCall/sequential/StatefulPartitionedCall/efficientnetb0/StatefulPartitionedCall/block6c_project_conv/StatefulPartitionedCall/Conv2D_weights",
        "op": "Const",
        "attr": {
          "value": {
            "tensor": {
              "dtype": "DT_FLOAT",
              "tensorShape": {
                "dim": [
                  {
                    "size": "1"
                  },
                  {
                    "size": "1"
                  },
                  {
                    "size": "1152"
                  },
                  {
                    "size": "192"
                  }
                ]
              }
            }
          },
          "dtype": {
            "type": "DT_FLOAT"
          }
        }
      },
      {
        "name": "StatefulPartitionedCall/model/1e9cafc363934eb1b8c67ca3830c5901/StatefulPartitionedCall/StatefulPartitionedCall/sequential_3/StatefulPartitionedCall/efficientnetb0/StatefulPartitionedCall/block7a_project_conv/StatefulPartitionedCall/Conv2D_bn_offset",
        "op": "Const",
        "attr": {
          "value": {
            "tensor": {
              "dtype": "DT_FLOAT",
              "tensorShape": {
                "dim": [
                  {
                    "size": "320"
                  }
                ]
              }
            }
          },
          "dtype": {
            "type": "DT_FLOAT"
          }
        }
      },
      {
        "name": "StatefulPartitionedCall/model/ff1fe8d48e3c45a1b58f9cae3ad95deb/StatefulPartitionedCall/StatefulPartitionedCall/sequential/StatefulPartitionedCall/efficientnetb0/StatefulPartitionedCall/block6c_project_conv/StatefulPartitionedCall/Conv2D_bn_offset",
        "op": "Const",
        "attr": {
          "value": {
            "tensor": {
              "dtype": "DT_FLOAT",
              "tensorShape": {
                "dim": [
                  {
                    "size": "192"
                  }
                ]
              }
            }
          },
          "dtype": {
            "type": "DT_FLOAT"
          }
        }
      },
      {
…
          "name": "StatefulPartitionedCall/model/1e9cafc363934eb1b8c67ca3830c5901/StatefulPartitionedCall/StatefulPartitionedCall/sequential_3/StatefulPartitionedCall/efficientnetb0/StatefulPartitionedCall/block5b_se_reshape/PartitionedCall/Reshape/shape/3",
          "shape": [],
          "dtype": "int32"
        },
        {
          "name": "StatefulPartitionedCall/model/1e9cafc363934eb1b8c67ca3830c5901/StatefulPartitionedCall/StatefulPartitionedCall/sequential_3/StatefulPartitionedCall/efficientnetb0/StatefulPartitionedCall/block5b_se_reduce/StatefulPartitionedCall/Conv2D/ReadVariableOp",
          "shape": [
            1,
            1,
            672,
            28
          ],
          "dtype": "float32"
        },
        {
          "name": "StatefulPartitionedCall/model/1e9cafc363934eb1b8c67ca3830c5901/StatefulPartitionedCall/StatefulPartitionedCall/sequential_3/StatefulPartitionedCall/efficientnetb0/StatefulPartitionedCall/block5b_se_reduce/StatefulPartitionedCall/BiasAdd/ReadVariableOp",
          "shape": [
            28
          ],
          "dtype": "float32"
        },
        {
          "name": "StatefulPartitionedCall/model/1e9cafc363934eb1b8c67ca3830c5901/StatefulPartitionedCall/StatefulPartitionedCall/sequential_3/StatefulPartitionedCall/efficientnetb0/StatefulPartitionedCall/block5b_se_expand/StatefulPartitionedCall/Conv2D/ReadVariableOp",
          "shape": [
            1,
            1,
            28,
            672
          ],
          "dtype": "float32"
        },
        {
          "name": "StatefulPartitionedCall/model/1e9cafc363934eb1b8c67ca3830c5901/StatefulPartitionedCall/StatefulPartitionedCall/sequential_3/StatefulPartitionedCall/efficientnetb0/StatefulPartitionedCall/block5b_se_expand/StatefulPartitionedCall/BiasAdd/ReadVariableOp",
          "shape": [
            672
          ],
          "dtype": "float32"
        },
        {
          "name": "StatefulPartitionedCall/model/1e9cafc363934eb1b8c67ca3830c5901/StatefulPartitionedCall/StatefulPartitionedCall/sequential_3/StatefulPartitionedCall/efficientnetb0/StatefulPartitionedCall/block4c_se_squeeze/PartitionedCall/Mean/reduction_indices",
          "shape": [
            2
          ],
          "dtype": "int32"
        },
        {
          "name": "StatefulPartitionedCall/model/1e9cafc363934eb1b8c67ca3830c5901/StatefulPartitionedCall/StatefulPartitionedCall/sequential_3/StatefulPartitionedCall/efficientnetb0/StatefulPartitionedCall/block4c_se_reshape/PartitionedCall/strided_slice/stack",
          "shape": [
            1
          ],
          "dtype": "int32"
        },
        {
          "name": "StatefulPartitionedCall/model/1e9cafc363934eb1b8c67ca3830c5901/StatefulPartitionedCall/StatefulPartitionedCall/sequential_3/StatefulPartitionedCall/efficientnetb0/StatefulPartitionedCall/block4c_se_reshape/PartitionedCall/strided_slice/stack_1",
          "shape": [
            1
          ],
          "dtype": "int32"
        },
        {
          "name": "StatefulPartitionedCall/model/1e9cafc363934eb1b8c67ca3830c5901/StatefulPartitionedCall/StatefulPartitionedCall/sequential_3/StatefulPartitionedCall/efficientnetb0/StatefulPartitionedCall/block4c_se_reshape/PartitionedCall/strided_slice/stack_2",
          "shape": [
            1
          ],
          "dtype": "int32"
        },
        {
          "name": "StatefulPartitionedCall/model/1e9cafc363934eb1b8c67ca3830c5901/StatefulPartitionedCall/StatefulPartitionedCall/sequential_3/StatefulPartitionedCall/efficientnetb0/StatefulPartitionedCall/block4c_se_reshape/PartitionedCall/Reshape/shape/1",
          "shape": [],
          "dtype": "int32"
        },
        {
          "name": "StatefulPartitionedCall/model/1e9cafc363934eb1b8c67ca3830c5901/StatefulPartitionedCall/StatefulPartitionedCall/sequential_3/StatefulPartitionedCall/efficientnetb0/StatefulPartitionedCall/block4c_se_reshape/PartitionedCall/Reshape/shape/2",
          "shape": [],
          "dtype": "int32"
        },
        {
          "name": "StatefulPartitionedCall/model/1e9cafc363934eb1b8c67ca3830c5901/StatefulPartitionedCall/StatefulPartitionedCall/sequential_3/StatefulPartitionedCall/efficientnetb0/StatefulPartitionedCall/block4c_se_reshape/PartitionedCall/Reshape/shape/3",
          "shape": [],
          "dtype": "int32"
        },
        {
          "name": "StatefulPartitionedCall/model/1e9cafc363934eb1b8c67ca3830c5901/StatefulPartitionedCall/StatefulPartitionedCall/sequential_3/StatefulPartitionedCall/efficientnetb0/StatefulPartitionedCall/block4c_se_reduce/StatefulPartitionedCall/Conv2D/ReadVariableOp",
          "shape": [
            1,
            1,
            480,
            20
          ],
          "dtype": "float32"
        },
        {
          "name": "StatefulPartitionedCall/model/1e9cafc363934eb1b8c67ca3830c5901/StatefulPartitionedCall/StatefulPartitionedCall/sequential_3/StatefulPartitionedCall/efficientnetb0/StatefulPartitionedCall/block4c_se_reduce/StatefulPartitionedCall/BiasAdd/ReadVariableOp",
          "shape": [
            20
          ],
          "dtype": "float32"
        },
        {
          "name": "StatefulPartitionedCall/model/1e9cafc363934eb1b8c67ca3830c5901/StatefulPartitionedCall/StatefulPartitionedCall/sequential_3/StatefulPartitionedCall/efficientnetb0/StatefulPartitionedCall/block4c_se_expand/StatefulPartitionedCall/Conv2D/ReadVariableOp",
          "shape": [
            1,
            1,
            20,
            480
          ],
          "dtype": "float32"
        },
        {
          "name": "StatefulPartitionedCall/model/1e9cafc363934eb1b8c67ca3830c5901/StatefulPartitionedCall/StatefulPartitionedCall/sequential_3/StatefulPartitionedCall/efficientnetb0/StatefulPartitionedCall/block4c_se_expand/StatefulPartitionedCall/BiasAdd/ReadVariableOp",
          "shape": [
            480
          ],
          "dtype": "float32"
        },
        {
          "name": "StatefulPartitionedCall/model/1e9cafc363934eb1b8c67ca3830c5901/StatefulPartitionedCall/StatefulPartitionedCall/sequential_3/StatefulPartitionedCall/efficientnetb0/StatefulPartitionedCall/block4b_se_squeeze/PartitionedCall/Mean/reduction_indices",
          "shape": [
            2
          ],
          "dtype": "int32"
        },
        {
          "name": "StatefulPartitionedCall/model/1e9cafc363934eb1b8c67ca3830c5901/StatefulPartitionedCall/StatefulPartitionedCall/sequential_3/StatefulPartitionedCall/efficientnetb0/StatefulPartitionedCall/block4b_se_reshape/PartitionedCall/strided_slice/stack",
          "shape": [
            1
          ],
          "dtype": "int32"
        },
        {
          "name": "StatefulPartitionedCall/model/1e9cafc363934eb1b8c67ca3830c5901/StatefulPartitionedCall/StatefulPartitionedCall/sequential_3/StatefulPartitionedCall/efficientnetb0/StatefulPartitionedCall/block4b_se_reshape/PartitionedCall/strided_slice/stack_1",
          "shape": [
            1
          ],
          "dtype": "int32"
        },
        {
          "name": "StatefulPartitionedCall/model/1e9cafc363934eb1b8c67ca3830c5901/StatefulPartitionedCall/StatefulPartitionedCall/sequential_3/StatefulPartitionedCall/efficientnetb0/StatefulPartitionedCall/block4b_se_reshape/PartitionedCall/strided_slice/stack_2",
          "shape": [
            1
          ],
          "dtype": "int32"
        },
        {
          "name": "StatefulPartitionedCall/model/1e9cafc363934eb1b8c67ca3830c5901/StatefulPartitionedCall/StatefulPartitionedCall/sequential_3/StatefulPartitionedCall/efficientnetb0/StatefulPartitionedCall/block4b_se_reshape/PartitionedCall/Reshape/shape/1",
          "shape": [],
          "dtype": "int32"
        },
        {
          "name": "StatefulPartitionedCall/model/1e9cafc363934eb1b8c67ca3830c5901/StatefulPartitionedCall/StatefulPartitionedCall/sequential_3/StatefulPartitionedCall/efficientnetb0/StatefulPartitionedCall/block4b_se_reshape/PartitionedCall/Reshape/shape/2",
          "shape": [],
          "dtype": "int32"
        },
        {
          "name": "StatefulPartitionedCall/model/1e9cafc363934eb1b8c67ca3830c5901/StatefulPartitionedCall/StatefulPartitionedCall/sequential_3/StatefulPartitionedCall/efficientnetb0/StatefulPartitionedCall/block4b_se_reshape/PartitionedCall/Reshape/shape/3",
          "shape": [],
          "dtype": "int32"
        },
        {
          "name": "StatefulPartitionedCall/model/1e9cafc363934eb1b8c67ca3830c5901/StatefulPartitionedCall/StatefulPartitionedCall/sequential_3/StatefulPartitionedCall/efficientnetb0/StatefulPartitionedCall/block4b_se_reduce/StatefulPartitionedCall/Conv2D/ReadVariableOp",
          "shape": [
            1,
            1,
            480,
            20
          ],
          "dtype": "float32"
        },
        {
          "name": "StatefulPartitionedCall/model/1e9cafc363934eb1b8c67ca3830c5901/StatefulPartitionedCall/StatefulPartitionedCall/sequential_3/StatefulPartitionedCall/efficientnetb0/StatefulPartitionedCall/block4b_se_reduce/StatefulPartitionedCall/BiasAdd/ReadVariableOp",
          "shape": [
            20
          ],
          "dtype": "float32"
        },
        {
          "name": "StatefulPartitionedCall/model/1e9cafc363934eb1b8c67ca3830c5901/StatefulPartitionedCall/StatefulPartitionedCall/sequential_3/StatefulPartitionedCall/efficientnetb0/StatefulPartitionedCall/block4b_se_expand/StatefulPartitionedCall/Conv2D/ReadVariableOp",
          "shape": [
            1,
            1,
            20,
            480
          ],
          "dtype": "float32"
        },
        {
          "name": "StatefulPartitionedCall/model/1e9cafc363934eb1b8c67ca3830c5901/StatefulPartitionedCall/StatefulPartitionedCall/sequential_3/StatefulPartitionedCall/efficientnetb0/StatefulPartitionedCall/block4b_se_expand/StatefulPartitionedCall/BiasAdd/ReadVariableOp",
          "shape": [
            480
          ],
          "dtype": "float32"
        },
        {
          "name": "StatefulPartitionedCall/model/1e9cafc363934eb1b8c67ca3830c5901/StatefulPartitionedCall/StatefulPartitionedCall/sequential_3/StatefulPartitionedCall/efficientnetb0/StatefulPartitionedCall/block3b_se_squeeze/PartitionedCall/Mean/reduction_indices",
          "shape": [
            2
          ],
          "dtype": "int32"
        },
        {
          "name": "StatefulPartitionedCall/model/1e9cafc363934eb1b8c67ca3830c5901/StatefulPartitionedCall/StatefulPartitionedCall/sequential_3/StatefulPartitionedCall/efficientnetb0/StatefulPartitionedCall/block3b_se_reshape/PartitionedCall/strided_slice/stack",
          "shape": [
            1
          ],
          "dtype": "int32"
        },
        {
          "name": "StatefulPartitionedCall/model/1e9cafc363934eb1b8c67ca3830c5901/StatefulPartitionedCall/StatefulPartitionedCall/sequential_3/StatefulPartitionedCall/efficientnetb0/StatefulPartitionedCall/block3b_se_reshape/PartitionedCall/strided_slice/stack_1",
          "shape": [
            1
          ],
          "dtype": "int32"
        },
        {
          "name": "StatefulPartitionedCall/model/1e9cafc363934eb1b8c67ca3830c5901/StatefulPartitionedCall/StatefulPartitionedCall/sequential_3/StatefulPartitionedCall/efficientnetb0/StatefulPartitionedCall/block3b_se_reshape/PartitionedCall/strided_slice/stack_2",
          "shape": [
            1
          ],
          "dtype": "int32"
        },
        {
          "name": "StatefulPartitionedCall/model/1e9cafc363934eb1b8c67ca3830c5901/StatefulPartitionedCall/StatefulPartitionedCall/sequential_3/StatefulPartitionedCall/efficientnetb0/StatefulPartitionedCall/block3b_se_reshape/PartitionedCall/Reshape/shape/1",
          "shape": [],
          "dtype": "int32"
        },
        {
          "name": "StatefulPartitionedCall/model/1e9cafc363934eb1b8c67ca3830c5901/StatefulPartitionedCall/StatefulPartitionedCall/sequential_3/StatefulPartitionedCall/efficientnetb0/StatefulPartitionedCall/block3b_se_reshape/PartitionedCall/Reshape/shape/2",
          "shape": [],
          "dtype": "int32"
        },
        {
          "name": "StatefulPartitionedCall/model/1e9cafc363934eb1b8c67ca3830c5901/StatefulPartitionedCall/StatefulPartitionedCall/sequential_3/StatefulPartitionedCall/efficientnetb0/StatefulPartitionedCall/block3b_se_reshape/PartitionedCall/Reshape/shape/3",
          "shape": [],
          "dtype": "int32"
        },
        {
          "name": "StatefulPartitionedCall/model/1e9cafc363934eb1b8c67ca3830c5901/StatefulPartitionedCall/StatefulPartitionedCall/sequential_3/StatefulPartitionedCall/efficientnetb0/StatefulPartitionedCall/block3b_se_reduce/StatefulPartitionedCall/Conv2D/ReadVariableOp",
          "shape": [
            1,
            1,
            240,
            10
          ],
          "dtype": "float32"
        },
        {
          "name": "StatefulPartitionedCall/model/1e9cafc363934eb1b8c67ca3830c5901/StatefulPartitionedCall/StatefulPartitionedCall/sequential_3/StatefulPartitionedCall/efficientnetb0/StatefulPartitionedCall/block3b_se_reduce/StatefulPartitionedCall/BiasAdd/ReadVariableOp",
          "shape": [
            10
          ],
          "dtype": "float32"
        },
        {
          "name": "StatefulPartitionedCall/model/1e9cafc363934eb1b8c67ca3830c5901/StatefulPartitionedCall/StatefulPartitionedCall/sequential_3/StatefulPartitionedCall/efficientnetb0/StatefulPartitionedCall/block3b_se_expand/StatefulPartitionedCall/Conv2D/ReadVariableOp",
          "shape": [
            1,
            1,
            10,
            240
          ],
          "dtype": "float32"
        },
        {
          "name": "StatefulPartitionedCall/model/1e9cafc363934eb1b8c67ca3830c5901/StatefulPartitionedCall/StatefulPartitionedCall/sequential_3/StatefulPartitionedCall/efficientnetb0/StatefulPartitionedCall/block3b_se_expand/StatefulPartitionedCall/BiasAdd/ReadVariableOp",
          "shape": [
            240
          ],
          "dtype": "float32"
        },
        {
          "name": "StatefulPartitionedCall/model/1e9cafc363934eb1b8c67ca3830c5901/StatefulPartitionedCall/StatefulPartitionedCall/sequential_3/StatefulPartitionedCall/efficientnetb0/StatefulPartitionedCall/block2b_se_squeeze/PartitionedCall/Mean/reduction_indices",
          "shape": [
            2
          ],
          "dtype": "int32"
        },
        {
          "name": "StatefulPartitionedCall/model/1e9cafc363934eb1b8c67ca3830c5901/StatefulPartitionedCall/StatefulPartitionedCall/sequential_3/StatefulPartitionedCall/efficientnetb0/StatefulPartitionedCall/block2b_se_reshape/PartitionedCall/strided_slice/stack",
          "shape": [
            1
          ],
          "dtype": "int32"
        },
        {
          "name": "StatefulPartitionedCall/model/1e9cafc363934eb1b8c67ca3830c5901/StatefulPartitionedCall/StatefulPartitionedCall/sequential_3/StatefulPartitionedCall/efficientnetb0/StatefulPartitionedCall/block2b_se_reshape/PartitionedCall/strided_slice/stack_1",
          "shape": [
            1
          ],
          "dtype": "int32"
        },
        {
          "name": "StatefulPartitionedCall/model/1e9cafc363934eb1b8c67ca3830c5901/StatefulPartitionedCall/StatefulPartitionedCall/sequential_3/StatefulPartitionedCall/efficientnetb0/StatefulPartitionedCall/block2b_se_reshape/PartitionedCall/strided_slice/stack_2",
          "shape": [
            1
          ],
          "dtype": "int32"
        },
        {
          "name": "StatefulPartitionedCall/model/1e9cafc363934eb1b8c67ca3830c5901/StatefulPartitionedCall/StatefulPartitionedCall/sequential_3/StatefulPartitionedCall/efficientnetb0/StatefulPartitionedCall/block2b_se_reshape/PartitionedCall/Reshape/shape/1",
          "shape": [],
          "dtype": "int32"
        },
        {
          "name": "StatefulPartitionedCall/model/1e9cafc363934eb1b8c67ca3830c5901/StatefulPartitionedCall/StatefulPartitionedCall/sequential_3/StatefulPartitionedCall/efficientnetb0/StatefulPartitionedCall/block2b_se_reshape/PartitionedCall/Reshape/shape/2",
          "shape": [],
          "dtype": "int32"
        },
        {
          "name": "StatefulPartitionedCall/model/1e9cafc363934eb1b8c67ca3830c5901/StatefulPartitionedCall/StatefulPartitionedCall/sequential_3/StatefulPartitionedCall/efficientnetb0/StatefulPartitionedCall/block2b_se_reshape/PartitionedCall/Reshape/shape/3",
          "shape": [],
          "dtype": "int32"
        },
        {
          "name": "StatefulPartitionedCall/model/1e9cafc363934eb1b8c67ca3830c5901/StatefulPartitionedCall/StatefulPartitionedCall/sequential_3/StatefulPartitionedCall/efficientnetb0/StatefulPartitionedCall/block2b_se_reduce/StatefulPartitionedCall/Conv2D/ReadVariableOp",
          "shape": [
            1,
            1,
            144,
            6
          ],
          "dtype": "float32"
        },
        {
          "name": "StatefulPartitionedCall/model/1e9cafc363934eb1b8c67ca3830c5901/StatefulPartitionedCall/StatefulPartitionedCall/sequential_3/StatefulPartitionedCall/efficientnetb0/StatefulPartitionedCall/block2b_se_reduce/StatefulPartitionedCall/BiasAdd/ReadVariableOp",
          "shape": [
            6
          ],
          "dtype": "float32"
        },
        {
          "name": "StatefulPartitionedCall/model/1e9cafc363934eb1b8c67ca3830c5901/StatefulPartitionedCall/StatefulPartitionedCall/sequential_3/StatefulPartitionedCall/efficientnetb0/StatefulPartitionedCall/block2b_se_expand/StatefulPartitionedCall/Conv2D/ReadVariableOp",
          "shape": [
            1,
            1,
            6,
            144
          ],
          "dtype": "float32"
        },
        {
          "name": "StatefulPartitionedCall/model/1e9cafc363934eb1b8c67ca3830c5901/StatefulPartitionedCall/StatefulPartitionedCall/sequential_3/StatefulPartitionedCall/efficientnetb0/StatefulPartitionedCall/block2b_se_expand/StatefulPartitionedCall/BiasAdd/ReadVariableOp",
          "shape": [
            144
          ],
          "dtype": "float32"
        },
        {
          "name": "StatefulPartitionedCall/model/1e9cafc363934eb1b8c67ca3830c5901/StatefulPartitionedCall/StatefulPartitionedCall/sequential_3/StatefulPartitionedCall/efficientnetb0/StatefulPartitionedCall/rescaling/PartitionedCall/Cast/x",
          "shape": [],
          "dtype": "float32"
        },
        {
          "name": "StatefulPartitionedCall/model/1e9cafc363934eb1b8c67ca3830c5901/StatefulPartitionedCall/StatefulPartitionedCall/sequential_3/StatefulPartitionedCall/efficientnetb0/StatefulPartitionedCall/rescaling/PartitionedCall/add",
          "shape": [
            1,
            1,
            1,
            3
          ],
          "dtype": "float32"
        },
        {
          "name": "StatefulPartitionedCall/model/1e9cafc363934eb1b8c67ca3830c5901/StatefulPartitionedCall/StatefulPartitionedCall/sequential_3/StatefulPartitionedCall/efficientnetb0/StatefulPartitionedCall/normalization/truediv",
          "shape": [
            1,
            1,
            1,
            3
          ],
          "dtype": "float32"
        },
        {
          "name": "StatefulPartitionedCall/model/1e9cafc363934eb1b8c67ca3830c5901/StatefulPartitionedCall/StatefulPartitionedCall/sequential_3/StatefulPartitionedCall/efficientnetb0/StatefulPartitionedCall/rescaling_1/PartitionedCall/Cast_1/x",
          "shape": [],
          "dtype": "float32"
        },
        {
          "name": "StatefulPartitionedCall/model/1e9cafc363934eb1b8c67ca3830c5901/StatefulPartitionedCall/StatefulPartitionedCall/sequential_3/StatefulPartitionedCall/efficientnetb0/StatefulPartitionedCall/stem_conv_pad/PartitionedCall/Pad/paddings",
          "shape": [
            4,
            2
          ],
          "dtype": "int32"
        },
        {
          "name": "StatefulPartitionedCall/model/1e9cafc363934eb1b8c67ca3830c5901/StatefulPartitionedCall/StatefulPartitionedCall/sequential_3/StatefulPartitionedCall/efficientnetb0/StatefulPartitionedCall/block1a_se_squeeze/PartitionedCall/Mean/reduction_indices",
          "shape": [
            2
          ],
          "dtype": "int32"
        },
        {
          "name": "StatefulPartitionedCall/model/1e9cafc363934eb1b8c67ca3830c5901/StatefulPartitionedCall/StatefulPartitionedCall/sequential_3/StatefulPartitionedCall/efficientnetb0/StatefulPartitionedCall/block1a_se_reshape/PartitionedCall/strided_slice/stack",
          "shape": [
            1
          ],
          "dtype": "int32"
        },
        {
          "name": "StatefulPartitionedCall/model/1e9cafc363934eb1b8c67ca3830c5901/StatefulPartitionedCall/StatefulPartitionedCall/sequential_3/StatefulPartitionedCall/efficientnetb0/StatefulPartitionedCall/block1a_se_reshape/PartitionedCall/strided_slice/stack_1",
          "shape": [
            1
          ],
          "dtype": "int32"
        },
        {
          "name": "StatefulPartitionedCall/model/1e9cafc363934eb1b8c67ca3830c5901/StatefulPartitionedCall/StatefulPartitionedCall/sequential_3/StatefulPartitionedCall/efficientnetb0/StatefulPartitionedCall/block1a_se_reshape/PartitionedCall/strided_slice/stack_2",
          "shape": [
            1
          ],
          "dtype": "int32"
        },
        {
          "name": "StatefulPartitionedCall/model/1e9cafc363934eb1b8c67ca3830c5901/StatefulPartitionedCall/StatefulPartitionedCall/sequential_3/StatefulPartitionedCall/efficientnetb0/StatefulPartitionedCall/block1a_se_reshape/PartitionedCall/Reshape/shape/1",
          "shape": [],
          "dtype": "int32"
        },
        {
          "name": "StatefulPartitionedCall/model/1e9cafc363934eb1b8c67ca3830c5901/StatefulPartitionedCall/StatefulPartitionedCall/sequential_3/StatefulPartitionedCall/efficientnetb0/StatefulPartitionedCall/block1a_se_reshape/PartitionedCall/Reshape/shape/2",
          "shape": [],
          "dtype": "int32"
        },
        {
          "name": "StatefulPartitionedCall/model/1e9cafc363934eb1b8c67ca3830c5901/StatefulPartitionedCall/StatefulPartitionedCall/sequential_3/StatefulPartitionedCall/efficientnetb0/StatefulPartitionedCall/block1a_se_reshape/PartitionedCall/Reshape/shape/3",
          "shape": [],
          "dtype": "int32"
        },
        {
          "name": "StatefulPartitionedCall/model/1e9cafc363934eb1b8c67ca3830c5901/StatefulPartitionedCall/StatefulPartitionedCall/sequential_3/StatefulPartitionedCall/efficientnetb0/StatefulPartitionedCall/block1a_se_reduce/StatefulPartitionedCall/Conv2D/ReadVariableOp",
          "shape": [
            1,
            1,
            32,
            8
          ],
          "dtype": "float32"
        },
        {
          "name": "StatefulPartitionedCall/model/1e9cafc363934eb1b8c67ca3830c5901/StatefulPartitionedCall/StatefulPartitionedCall/sequential_3/StatefulPartitionedCall/efficientnetb0/StatefulPartitionedCall/block1a_se_reduce/StatefulPartitionedCall/BiasAdd/ReadVariableOp",
          "shape": [
            8
          ],
          "dtype": "float32"
        },
        {
          "name": "StatefulPartitionedCall/model/1e9cafc363934eb1b8c67ca3830c5901/StatefulPartitionedCall/StatefulPartitionedCall/sequential_3/StatefulPartitionedCall/efficientnetb0/StatefulPartitionedCall/block1a_se_expand/StatefulPartitionedCall/Conv2D/ReadVariableOp",
          "shape": [
            1,
            1,
            8,
            32
          ],
          "dtype": "float32"
        },
        {
          "name": "StatefulPartitionedCall/model/1e9cafc363934eb1b8c67ca3830c5901/StatefulPartitionedCall/StatefulPartitionedCall/sequential_3/StatefulPartitionedCall/efficientnetb0/StatefulPartitionedCall/block1a_se_expand/StatefulPartitionedCall/BiasAdd/ReadVariableOp",
          "shape": [
            32
          ],
          "dtype": "float32"
        },
        {
          "name": "StatefulPartitionedCall/model/1e9cafc363934eb1b8c67ca3830c5901/StatefulPartitionedCall/StatefulPartitionedCall/sequential_3/StatefulPartitionedCall/efficientnetb0/StatefulPartitionedCall/block2a_dwconv_pad/PartitionedCall/Pad/paddings",
          "shape": [
            4,
            2
          ],
          "dtype": "int32"
        },
        {
          "name": "StatefulPartitionedCall/model/1e9cafc363934eb1b8c67ca3830c5901/StatefulPartitionedCall/StatefulPartitionedCall/sequential_3/StatefulPartitionedCall/efficientnetb0/StatefulPartitionedCall/block2a_se_squeeze/PartitionedCall/Mean/reduction_indices",
          "shape": [
            2
          ],
          "dtype": "int32"
        },
        {
          "name": "StatefulPartitionedCall/model/1e9cafc363934eb1b8c67ca3830c5901/StatefulPartitionedCall/StatefulPartitionedCall/sequential_3/StatefulPartitionedCall/efficientnetb0/StatefulPartitionedCall/block2a_se_reshape/PartitionedCall/strided_slice/stack",
          "shape": [
            1
          ],
          "dtype": "int32"
        },
        {
          "name": "StatefulPartitionedCall/model/1e9cafc363934eb1b8c67ca3830c5901/StatefulPartitionedCall/StatefulPartitionedCall/sequential_3/StatefulPartitionedCall/efficientnetb0/StatefulPartitionedCall/block2a_se_reshape/PartitionedCall/strided_slice/stack_1",
          "shape": [
            1
          ],
          "dtype": "int32"
        },
        {
          "name": "StatefulPartitionedCall/model/1e9cafc363934eb1b8c67ca3830c5901/StatefulPartitionedCall/StatefulPartitionedCall/sequential_3/StatefulPartitionedCall/efficientnetb0/StatefulPartitionedCall/block2a_se_reshape/PartitionedCall/strided_slice/stack_2",
          "shape": [
            1
          ],
          "dtype": "int32"
        },
        {
          "name": "StatefulPartitionedCall/model/1e9cafc363934eb1b8c67ca3830c5901/StatefulPartitionedCall/StatefulPartitionedCall/sequential_3/StatefulPartitionedCall/efficientnetb0/StatefulPartitionedCall/block2a_se_reshape/PartitionedCall/Reshape/shape/1",
          "shape": [],
          "dtype": "int32"
        },
        {
          "name": "StatefulPartitionedCall/model/1e9cafc363934eb1b8c67ca3830c5901/StatefulPartitionedCall/StatefulPartitionedCall/sequential_3/StatefulPartitionedCall/efficientnetb0/StatefulPartitionedCall/block2a_se_reshape/PartitionedCall/Reshape/shape/2",
          "shape": [],
          "dtype": "int32"
        },
        {
          "name": "StatefulPartitionedCall/model/1e9cafc363934eb1b8c67ca3830c5901/StatefulPartitionedCall/StatefulPartitionedCall/sequential_3/StatefulPartitionedCall/efficientnetb0/StatefulPartitionedCall/block2a_se_reshape/PartitionedCall/Reshape/shape/3",
          "shape": [],
          "dtype": "int32"
        },
        {
          "name": "StatefulPartitionedCall/model/1e9cafc363934eb1b8c67ca3830c5901/StatefulPartitionedCall/StatefulPartitionedCall/sequential_3/StatefulPartitionedCall/efficientnetb0/StatefulPartitionedCall/block2a_se_reduce/StatefulPartitionedCall/Conv2D/ReadVariableOp",
          "shape": [
            1,
            1,
            96,
            4
          ],
          "dtype": "float32"
        },
        {
          "name": "StatefulPartitionedCall/model/1e9cafc363934eb1b8c67ca3830c5901/StatefulPartitionedCall/StatefulPartitionedCall/sequential_3/StatefulPartitionedCall/efficientnetb0/StatefulPartitionedCall/block2a_se_reduce/StatefulPartitionedCall/BiasAdd/ReadVariableOp",
          "shape": [
            4
          ],
          "dtype": "float32"
        },
        {
          "name": "StatefulPartitionedCall/model/1e9cafc363934eb1b8c67ca3830c5901/StatefulPartitionedCall/StatefulPartitionedCall/sequential_3/StatefulPartitionedCall/efficientnetb0/StatefulPartitionedCall/block2a_se_expand/StatefulPartitionedCall/Conv2D/ReadVariableOp",
          "shape": [
            1,
            1,
            4,
            96
          ],
          "dtype": "float32"
        },
        {
          "name": "StatefulPartitionedCall/model/1e9cafc363934eb1b8c67ca3830c5901/StatefulPartitionedCall/StatefulPartitionedCall/sequential_3/StatefulPartitionedCall/efficientnetb0/StatefulPartitionedCall/block2a_se_expand/StatefulPartitionedCall/BiasAdd/ReadVariableOp",
          "shape": [
            96
          ],
          "dtype": "float32"
        },
        {
          "name": "StatefulPartitionedCall/model/1e9cafc363934eb1b8c67ca3830c5901/StatefulPartitionedCall/StatefulPartitionedCall/sequential_3/StatefulPartitionedCall/efficientnetb0/StatefulPartitionedCall/block3a_dwconv_pad/PartitionedCall/Pad/paddings",
          "shape": [
            4,
            2
          ],
          "dtype": "int32"
        },
        {
          "name": "StatefulPartitionedCall/model/1e9cafc363934eb1b8c67ca3830c5901/StatefulPartitionedCall/StatefulPartitionedCall/sequential_3/StatefulPartitionedCall/efficientnetb0/StatefulPartitionedCall/block3a_se_squeeze/PartitionedCall/Mean/reduction_indices",
          "shape": [
            2
          ],
          "dtype": "int32"
        },
        {
          "name": "StatefulPartitionedCall/model/1e9cafc363934eb1b8c67ca3830c5901/StatefulPartitionedCall/StatefulPartitionedCall/sequential_3/StatefulPartitionedCall/efficientnetb0/StatefulPartitionedCall/block3a_se_reshape/PartitionedCall/strided_slice/stack",
          "shape": [
            1
          ],
          "dtype": "int32"
        },
        {
          "name": "StatefulPartitionedCall/model/1e9cafc363934eb1b8c67ca3830c5901/StatefulPartitionedCall/StatefulPartitionedCall/sequential_3/StatefulPartitionedCall/efficientnetb0/StatefulPartitionedCall/block3a_se_reshape/PartitionedCall/strided_slice/stack_1",
          "shape": [
            1
          ],
          "dtype": "int32"
        },
        {
          "name": "StatefulPartitionedCall/model/1e9cafc363934eb1b8c67ca3830c5901/StatefulPartitionedCall/StatefulPartitionedCall/sequential_3/StatefulPartitionedCall/efficientnetb0/StatefulPartitionedCall/block3a_se_reshape/PartitionedCall/strided_slice/stack_2",
          "shape": [
            1
          ],
          "dtype": "int32"
        },
        {
          "name": "StatefulPartitionedCall/model/1e9cafc363934eb1b8c67ca3830c5901/StatefulPartitionedCall/StatefulPartitionedCall/sequential_3/StatefulPartitionedCall/efficientnetb0/StatefulPartitionedCall/block3a_se_reshape/PartitionedCall/Reshape/shape/1",
          "shape": [],
          "dtype": "int32"
        },
        {
          "name": "StatefulPartitionedCall/model/1e9cafc363934eb1b8c67ca3830c5901/StatefulPartitionedCall/StatefulPartitionedCall/sequential_3/StatefulPartitionedCall/efficientnetb0/StatefulPartitionedCall/block3a_se_reshape/PartitionedCall/Reshape/shape/2",
          "shape": [],
          "dtype": "int32"
        },
        {
          "name": "StatefulPartitionedCall/model/1e9cafc363934eb1b8c67ca3830c5901/StatefulPartitionedCall/StatefulPartitionedCall/sequential_3/StatefulPartitionedCall/efficientnetb0/StatefulPartitionedCall/block3a_se_reshape/PartitionedCall/Reshape/shape/3",
          "shape": [],
          "dtype": "int32"
        },
        {
          "name": "StatefulPartitionedCall/model/1e9cafc363934eb1b8c67ca3830c5901/StatefulPartitionedCall/StatefulPartitionedCall/sequential_3/StatefulPartitionedCall/efficientnetb0/StatefulPartitionedCall/block3a_se_reduce/StatefulPartitionedCall/Conv2D/ReadVariableOp",
          "shape": [
            1,
            1,
            144,
            6
          ],
          "dtype": "float32"
        },
        {
          "name": "StatefulPartitionedCall/model/1e9cafc363934eb1b8c67ca3830c5901/StatefulPartitionedCall/StatefulPartitionedCall/sequential_3/StatefulPartitionedCall/efficientnetb0/StatefulPartitionedCall/block3a_se_reduce/StatefulPartitionedCall/BiasAdd/ReadVariableOp",
          "shape": [
            6
          ],
          "dtype": "float32"
        },
        {
          "name": "StatefulPartitionedCall/model/1e9cafc363934eb1b8c67ca3830c5901/StatefulPartitionedCall/StatefulPartitionedCall/sequential_3/StatefulPartitionedCall/efficientnetb0/StatefulPartitionedCall/block3a_se_expand/StatefulPartitionedCall/Conv2D/ReadVariableOp",
          "shape": [
            1,
            1,
            6,
            144
          ],
          "dtype": "float32"
        },
        {
          "name": "StatefulPartitionedCall/model/1e9cafc363934eb1b8c67ca3830c5901/StatefulPartitionedCall/StatefulPartitionedCall/sequential_3/StatefulPartitionedCall/efficientnetb0/StatefulPartitionedCall/block3a_se_expand/StatefulPartitionedCall/BiasAdd/ReadVariableOp",
          "shape": [
            144
          ],
          "dtype": "float32"
        },
        {
          "name": "StatefulPartitionedCall/model/1e9cafc363934eb1b8c67ca3830c5901/StatefulPartitionedCall/StatefulPartitionedCall/sequential_3/StatefulPartitionedCall/efficientnetb0/StatefulPartitionedCall/block4a_dwconv_pad/PartitionedCall/Pad/paddings",
          "shape": [
            4,
            2
          ],
          "dtype": "int32"
        },
        {
          "name": "StatefulPartitionedCall/model/1e9cafc363934eb1b8c67ca3830c5901/StatefulPartitionedCall/StatefulPartitionedCall/sequential_3/StatefulPartitionedCall/efficientnetb0/StatefulPartitionedCall/block4a_se_squeeze/PartitionedCall/Mean/reduction_indices",
          "shape": [
            2
          ],
          "dtype": "int32"
        },
        {
          "name": "StatefulPartitionedCall/model/1e9cafc363934eb1b8c67ca3830c5901/StatefulPartitionedCall/StatefulPartitionedCall/sequential_3/StatefulPartitionedCall/efficientnetb0/StatefulPartitionedCall/block4a_se_reshape/PartitionedCall/strided_slice/stack",
          "shape": [
            1
          ],
          "dtype": "int32"
        },
        {
          "name": "StatefulPartitionedCall/model/1e9cafc363934eb1b8c67ca3830c5901/StatefulPartitionedCall/StatefulPartitionedCall/sequential_3/StatefulPartitionedCall/efficientnetb0/StatefulPartitionedCall/block4a_se_reshape/PartitionedCall/strided_slice/stack_1",
          "shape": [
            1
          ],
          "dtype": "int32"
        },
        {
          "name": "StatefulPartitionedCall/model/1e9cafc363934eb1b8c67ca3830c5901/StatefulPartitionedCall/StatefulPartitionedCall/sequential_3/StatefulPartitionedCall/efficientnetb0/StatefulPartitionedCall/block4a_se_reshape/PartitionedCall/strided_slice/stack_2",
          "shape": [
            1
          ],
          "dtype": "int32"
        },
        {
          "name": "StatefulPartitionedCall/model/1e9cafc363934eb1b8c67ca3830c5901/StatefulPartitionedCall/StatefulPartitionedCall/sequential_3/StatefulPartitionedCall/efficientnetb0/StatefulPartitionedCall/block4a_se_reshape/PartitionedCall/Reshape/shape/1",
          "shape": [],
          "dtype": "int32"
        },
        {
          "name": "StatefulPartitionedCall/model/1e9cafc363934eb1b8c67ca3830c5901/StatefulPartitionedCall/StatefulPartitionedCall/sequential_3/StatefulPartitionedCall/efficientnetb0/StatefulPartitionedCall/block4a_se_reshape/PartitionedCall/Reshape/shape/2",
          "shape": [],
          "dtype": "int32"
        },
        {
          "name": "StatefulPartitionedCall/model/1e9cafc363934eb1b8c67ca3830c5901/StatefulPartitionedCall/StatefulPartitionedCall/sequential_3/StatefulPartitionedCall/efficientnetb0/StatefulPartitionedCall/block4a_se_reshape/PartitionedCall/Reshape/shape/3",
          "shape": [],
          "dtype": "int32"
        },
        {
          "name": "StatefulPartitionedCall/model/1e9cafc363934eb1b8c67ca3830c5901/StatefulPartitionedCall/StatefulPartitionedCall/sequential_3/StatefulPartitionedCall/efficientnetb0/StatefulPartitionedCall/block4a_se_reduce/StatefulPartitionedCall/Conv2D/ReadVariableOp",
          "shape": [
            1,
            1,
            240,
            10
          ],
          "dtype": "float32"
        },
        {
          "name": "StatefulPartitionedCall/model/1e9cafc363934eb1b8c67ca3830c5901/StatefulPartitionedCall/StatefulPartitionedCall/sequential_3/StatefulPartitionedCall/efficientnetb0/StatefulPartitionedCall/block4a_se_reduce/StatefulPartitionedCall/BiasAdd/ReadVariableOp",
          "shape": [
            10
          ],
          "dtype": "float32"
        },
        {
          "name": "StatefulPartitionedCall/model/1e9cafc363934eb1b8c67ca3830c5901/StatefulPartitionedCall/StatefulPartitionedCall/sequential_3/StatefulPartitionedCall/efficientnetb0/StatefulPartitionedCall/block4a_se_expand/StatefulPartitionedCall/Conv2D/ReadVariableOp",
          "shape": [
            1,
            1,
            10,
            240
          ],
          "dtype": "float32"
        },
        {
          "name": "StatefulPartitionedCall/model/1e9cafc363934eb1b8c67ca3830c5901/StatefulPartitionedCall/StatefulPartitionedCall/sequential_3/StatefulPartitionedCall/efficientnetb0/StatefulPartitionedCall/block4a_se_expand/StatefulPartitionedCall/BiasAdd/ReadVariableOp",
          "shape": [
            240
          ],
          "dtype": "float32"
        },
        {
          "name": "StatefulPartitionedCall/model/1e9cafc363934eb1b8c67ca3830c5901/StatefulPartitionedCall/StatefulPartitionedCall/sequential_3/StatefulPartitionedCall/efficientnetb0/StatefulPartitionedCall/block5a_se_squeeze/PartitionedCall/Mean/reduction_indices",
          "shape": [
            2
          ],
          "dtype": "int32"
        },
        {
          "name": "StatefulPartitionedCall/model/1e9cafc363934eb1b8c67ca3830c5901/StatefulPartitionedCall/StatefulPartitionedCall/sequential_3/StatefulPartitionedCall/efficientnetb0/StatefulPartitionedCall/block5a_se_reshape/PartitionedCall/strided_slice/stack",
          "shape": [
            1
          ],
          "dtype": "int32"
        },
        {
          "name": "StatefulPartitionedCall/model/1e9cafc363934eb1b8c67ca3830c5901/StatefulPartitionedCall/StatefulPartitionedCall/sequential_3/StatefulPartitionedCall/efficientnetb0/StatefulPartitionedCall/block5a_se_reshape/PartitionedCall/strided_slice/stack_1",
          "shape": [
            1
          ],
          "dtype": "int32"
        },
        {
          "name": "StatefulPartitionedCall/model/1e9cafc363934eb1b8c67ca3830c5901/StatefulPartitionedCall/StatefulPartitionedCall/sequential_3/StatefulPartitionedCall/efficientnetb0/StatefulPartitionedCall/block5a_se_reshape/PartitionedCall/strided_slice/stack_2",
          "shape": [
            1
          ],
          "dtype": "int32"
        },
        {
          "name": "StatefulPartitionedCall/model/1e9cafc363934eb1b8c67ca3830c5901/StatefulPartitionedCall/StatefulPartitionedCall/sequential_3/StatefulPartitionedCall/efficientnetb0/StatefulPartitionedCall/block5a_se_reshape/PartitionedCall/Reshape/shape/1",
          "shape": [],
          "dtype": "int32"
        },
        {
          "name": "StatefulPartitionedCall/model/1e9cafc363934eb1b8c67ca3830c5901/StatefulPartitionedCall/StatefulPartitionedCall/sequential_3/StatefulPartitionedCall/efficientnetb0/StatefulPartitionedCall/block5a_se_reshape/PartitionedCall/Reshape/shape/2",
          "shape": [],
          "dtype": "int32"
        },
        {
          "name": "StatefulPartitionedCall/model/1e9cafc363934eb1b8c67ca3830c5901/StatefulPartitionedCall/StatefulPartitionedCall/sequential_3/StatefulPartitionedCall/efficientnetb0/StatefulPartitionedCall/block5a_se_reshape/PartitionedCall/Reshape/shape/3",
          "shape": [],
          "dtype": "int32"
        },
        {
          "name": "StatefulPartitionedCall/model/1e9cafc363934eb1b8c67ca3830c5901/StatefulPartitionedCall/StatefulPartitionedCall/sequential_3/StatefulPartitionedCall/efficientnetb0/StatefulPartitionedCall/block5a_se_reduce/StatefulPartitionedCall/Conv2D/ReadVariableOp",
          "shape": [
            1,
            1,
            480,
            20
          ],
          "dtype": "float32"
        },
        {
          "name": "StatefulPartitionedCall/model/1e9cafc363934eb1b8c67ca3830c5901/StatefulPartitionedCall/StatefulPartitionedCall/sequential_3/StatefulPartitionedCall/efficientnetb0/StatefulPartitionedCall/block5a_se_reduce/StatefulPartitionedCall/BiasAdd/ReadVariableOp",
          "shape": [
            20
          ],
          "dtype": "float32"
        },
        {
          "name": "StatefulPartitionedCall/model/1e9cafc363934eb1b8c67ca3830c5901/StatefulPartitionedCall/StatefulPartitionedCall/sequential_3/StatefulPartitionedCall/efficientnetb0/StatefulPartitionedCall/block5a_se_expand/StatefulPartitionedCall/Conv2D/ReadVariableOp",
          "shape": [
            1,
            1,
            20,
            480
          ],
          "dtype": "float32"
        },
        {
          "name": "StatefulPartitionedCall/model/1e9cafc363934eb1b8c67ca3830c5901/StatefulPartitionedCall/StatefulPartitionedCall/sequential_3/StatefulPartitionedCall/efficientnetb0/StatefulPartitionedCall/block5a_se_expand/StatefulPartitionedCall/BiasAdd/ReadVariableOp",
          "shape": [
            480
          ],
          "dtype": "float32"
        },
        {
          "name": "StatefulPartitionedCall/model/1e9cafc363934eb1b8c67ca3830c5901/StatefulPartitionedCall/StatefulPartitionedCall/sequential_3/StatefulPartitionedCall/efficientnetb0/StatefulPartitionedCall/block6a_dwconv_pad/PartitionedCall/Pad/paddings",
          "shape": [
            4,
            2
          ],
          "dtype": "int32"
        },
        {
          "name": "StatefulPartitionedCall/model/1e9cafc363934eb1b8c67ca3830c5901/StatefulPartitionedCall/StatefulPartitionedCall/sequential_3/StatefulPartitionedCall/efficientnetb0/StatefulPartitionedCall/block6a_se_squeeze/PartitionedCall/Mean/reduction_indices",
          "shape": [
            2
          ],
          "dtype": "int32"
        },
        {
          "name": "StatefulPartitionedCall/model/1e9cafc363934eb1b8c67ca3830c5901/StatefulPartitionedCall/StatefulPartitionedCall/sequential_3/StatefulPartitionedCall/efficientnetb0/StatefulPartitionedCall/block6a_se_reshape/PartitionedCall/strided_slice/stack",
          "shape": [
            1
          ],
          "dtype": "int32"
        },
        {
          "name": "StatefulPartitionedCall/model/1e9cafc363934eb1b8c67ca3830c5901/StatefulPartitionedCall/StatefulPartitionedCall/sequential_3/StatefulPartitionedCall/efficientnetb0/StatefulPartitionedCall/block6a_se_reshape/PartitionedCall/strided_slice/stack_1",
          "shape": [
            1
          ],
          "dtype": "int32"
        },
        {
          "name": "StatefulPartitionedCall/model/1e9cafc363934eb1b8c67ca3830c5901/StatefulPartitionedCall/StatefulPartitionedCall/sequential_3/StatefulPartitionedCall/efficientnetb0/StatefulPartitionedCall/block6a_se_reshape/PartitionedCall/strided_slice/stack_2",
          "shape": [
            1
          ],
          "dtype": "int32"
        },
        {
          "name": "StatefulPartitionedCall/model/1e9cafc363934eb1b8c67ca3830c5901/StatefulPartitionedCall/StatefulPartitionedCall/sequential_3/StatefulPartitionedCall/efficientnetb0/StatefulPartitionedCall/block6a_se_reshape/PartitionedCall/Reshape/shape/1",
          "shape": [],
          "dtype": "int32"
        },
        {
          "name": "StatefulPartitionedCall/model/1e9cafc363934eb1b8c67ca3830c5901/StatefulPartitionedCall/StatefulPartitionedCall/sequential_3/StatefulPartitionedCall/efficientnetb0/StatefulPartitionedCall/block6a_se_reshape/PartitionedCall/Reshape/shape/2",
          "shape": [],
          "dtype": "int32"
        },
        {
          "name": "StatefulPartitionedCall/model/1e9cafc363934eb1b8c67ca3830c5901/StatefulPartitionedCall/StatefulPartitionedCall/sequential_3/StatefulPartitionedCall/efficientnetb0/StatefulPartitionedCall/block6a_se_reshape/PartitionedCall/Reshape/shape/3",
          "shape": [],
          "dtype": "int32"
        },
        {
          "name": "StatefulPartitionedCall/model/1e9cafc363934eb1b8c67ca3830c5901/StatefulPartitionedCall/StatefulPartitionedCall/sequential_3/StatefulPartitionedCall/efficientnetb0/StatefulPartitionedCall/block6a_se_reduce/StatefulPartitionedCall/Conv2D/ReadVariableOp",
          "shape": [
            1,
            1,
            672,
            28
          ],
          "dtype": "float32"
        },
        {
          "name": "StatefulPartitionedCall/model/1e9cafc363934eb1b8c67ca3830c5901/StatefulPartitionedCall/StatefulPartitionedCall/sequential_3/StatefulPartitionedCall/efficientnetb0/StatefulPartitionedCall/block6a_se_reduce/StatefulPartitionedCall/BiasAdd/ReadVariableOp",
          "shape": [
            28
          ],
          "dtype": "float32"
        },
        {
          "name": "StatefulPartitionedCall/model/1e9cafc363934eb1b8c67ca3830c5901/StatefulPartitionedCall/StatefulPartitionedCall/sequential_3/StatefulPartitionedCall/efficientnetb0/StatefulPartitionedCall/block6a_se_expand/StatefulPartitionedCall/Conv2D/ReadVariableOp",
          "shape": [
            1,
            1,
            28,
            672
          ],
          "dtype": "float32"
        },
        {
          "name": "StatefulPartitionedCall/model/1e9cafc363934eb1b8c67ca3830c5901/StatefulPartitionedCall/StatefulPartitionedCall/sequential_3/StatefulPartitionedCall/efficientnetb0/StatefulPartitionedCall/block6a_se_expand/StatefulPartitionedCall/BiasAdd/ReadVariableOp",
          "shape": [
            672
          ],
          "dtype": "float32"
        },
        {
          "name": "StatefulPartitionedCall/model/1e9cafc363934eb1b8c67ca3830c5901/StatefulPartitionedCall/StatefulPartitionedCall/sequential_3/StatefulPartitionedCall/efficientnetb0/StatefulPartitionedCall/block7a_se_squeeze/PartitionedCall/Mean/reduction_indices",
          "shape": [
            2
          ],
          "dtype": "int32"
        },
        {
          "name": "StatefulPartitionedCall/model/1e9cafc363934eb1b8c67ca3830c5901/StatefulPartitionedCall/StatefulPartitionedCall/sequential_3/StatefulPartitionedCall/efficientnetb0/StatefulPartitionedCall/block7a_se_reshape/PartitionedCall/strided_slice/stack",
          "shape": [
            1
          ],
          "dtype": "int32"
        },
        {
          "name": "StatefulPartitionedCall/model/1e9cafc363934eb1b8c67ca3830c5901/StatefulPartitionedCall/StatefulPartitionedCall/sequential_3/StatefulPartitionedCall/efficientnetb0/StatefulPartitionedCall/block7a_se_reshape/PartitionedCall/strided_slice/stack_1",
          "shape": [
            1
          ],
          "dtype": "int32"
        },
        {
          "name": "StatefulPartitionedCall/model/1e9cafc363934eb1b8c67ca3830c5901/StatefulPartitionedCall/StatefulPartitionedCall/sequential_3/StatefulPartitionedCall/efficientnetb0/StatefulPartitionedCall/block7a_se_reshape/PartitionedCall/strided_slice/stack_2",
          "shape": [
            1
          ],
          "dtype": "int32"
        },
        {
          "name": "StatefulPartitionedCall/model/1e9cafc363934eb1b8c67ca3830c5901/StatefulPartitionedCall/StatefulPartitionedCall/sequential_3/StatefulPartitionedCall/efficientnetb0/StatefulPartitionedCall/block7a_se_reshape/PartitionedCall/Reshape/shape/1",
          "shape": [],
          "dtype": "int32"
        },
        {
          "name": "StatefulPartitionedCall/model/1e9cafc363934eb1b8c67ca3830c5901/StatefulPartitionedCall/StatefulPartitionedCall/sequential_3/StatefulPartitionedCall/efficientnetb0/StatefulPartitionedCall/block7a_se_reshape/PartitionedCall/Reshape/shape/2",
          "shape": [],
          "dtype": "int32"
        },
        {
          "name": "StatefulPartitionedCall/model/1e9cafc363934eb1b8c67ca3830c5901/StatefulPartitionedCall/StatefulPartitionedCall/sequential_3/StatefulPartitionedCall/efficientnetb0/StatefulPartitionedCall/block7a_se_reshape/PartitionedCall/Reshape/shape/3",
          "shape": [],
          "dtype": "int32"
        },
        {
          "name": "StatefulPartitionedCall/model/1e9cafc363934eb1b8c67ca3830c5901/StatefulPartitionedCall/StatefulPartitionedCall/sequential_3/StatefulPartitionedCall/efficientnetb0/StatefulPartitionedCall/block7a_se_reduce/StatefulPartitionedCall/Conv2D/ReadVariableOp",
          "shape": [
            1,
            1,
            1152,
            48
          ],
          "dtype": "float32"
        },
        {
          "name": "StatefulPartitionedCall/model/1e9cafc363934eb1b8c67ca3830c5901/StatefulPartitionedCall/StatefulPartitionedCall/sequential_3/StatefulPartitionedCall/efficientnetb0/StatefulPartitionedCall/block7a_se_reduce/StatefulPartitionedCall/BiasAdd/ReadVariableOp",
          "shape": [
            48
          ],
          "dtype": "float32"
        },
        {
          "name": "StatefulPartitionedCall/model/1e9cafc363934eb1b8c67ca3830c5901/StatefulPartitionedCall/StatefulPartitionedCall/sequential_3/StatefulPartitionedCall/efficientnetb0/StatefulPartitionedCall/block7a_se_expand/StatefulPartitionedCall/Conv2D/ReadVariableOp",
          "shape": [
            1,
            1,
            48,
            1152
          ],
          "dtype": "float32"
        },
        {
          "name": "StatefulPartitionedCall/model/1e9cafc363934eb1b8c67ca3830c5901/StatefulPartitionedCall/StatefulPartitionedCall/sequential_3/StatefulPartitionedCall/efficientnetb0/StatefulPartitionedCall/block7a_se_expand/StatefulPartitionedCall/BiasAdd/ReadVariableOp",
          "shape": [
            1152
          ],
          "dtype": "float32"
        },
        {
          "name": "StatefulPartitionedCall/model/1e9cafc363934eb1b8c67ca3830c5901/StatefulPartitionedCall/StatefulPartitionedCall/sequential_3/StatefulPartitionedCall/avg_pool_new/PartitionedCall/Mean/reduction_indices",
          "shape": [
            2
          ],
          "dtype": "int32"
        },
        {
          "name": "StatefulPartitionedCall/model/1e9cafc363934eb1b8c67ca3830c5901/StatefulPartitionedCall/StatefulPartitionedCall/sequential_3/StatefulPartitionedCall/fc_new/StatefulPartitionedCall/MatMul/ReadVariableOp",
          "shape": [
            1280,
            1
          ],
          "dtype": "float32"
        },
        {
          "name": "StatefulPartitionedCall/model/1e9cafc363934eb1b8c67ca3830c5901/StatefulPartitionedCall/StatefulPartitionedCall/sequential_3/StatefulPartitionedCall/fc_new/StatefulPartitionedCall/BiasAdd/ReadVariableOp",
          "shape": [
            1
          ],
          "dtype": "float32"
        }
      ]
    }
  ]
}